{
    "format": "layers-model",
    "generatedBy": "keras v2.0.8",
    "convertedBy": "TensorFlow.js Converter v2.1.0",
    "modelTopology": {
        "keras_version": "2.0.8",
        "backend": "tensorflow",
        "model_config": {
            "class_name": "Model",
            "config": {
                "layers": [
                    {
                        "class_name": "InputLayer",
                        "config": {
                            "dtype": "float32",
                            "batch_input_shape": [
                                null,
                                3,
                                192,
                                192
                            ],
                            "name": "input_1",
                            "sparse": false
                        },
                        "inbound_nodes": [],
                        "name": "input_1"
                    },
                    {
                        "class_name": "ZeroPadding2D",
                        "config": {
                            "padding": [
                                [
                                    3,
                                    3
                                ],
                                [
                                    3,
                                    3
                                ]
                            ],
                            "trainable": true,
                            "name": "zero_padding2d_1",
                            "data_format": "channels_first"
                        },
                        "inbound_nodes": [
                            [
                                [
                                    "input_1",
                                    0,
                                    0,
                                    {}
                                ]
                            ]
                        ],
                        "name": "zero_padding2d_1"
                    },
                    {
                        "class_name": "Conv",
                        "config": {
                            "padding": "valid",
                            "kernel_initializer": {
                                "class_name": "VarianceScaling",
                                "config": {
                                    "distribution": "uniform",
                                    "scale": 1.0,
                                    "seed": null,
                                    "mode": "fan_avg"
                                }
                            },
                            "name": "conv_1",
                            "bias_regularizer": null,
                            "bias_constraint": null,
                            "activation": "linear",
                            "trainable": true,
                            "data_format": "channels_first",
                            "output_dim": 64,
                            "kernel_constraint": null,
                            "strides": [
                                2,
                                2
                            ],
                            "dilation_rate": [
                                1,
                                1
                            ],
                            "kernel_regularizer": null,
                            "filters": 64,
                            "bias_initializer": {
                                "class_name": "Zeros",
                                "config": {}
                            },
                            "use_bias": true,
                            "activity_regularizer": null,
                            "kernel_size": [
                                7,
                                7
                            ],
                            "size": 7
                        },
                        "inbound_nodes": [
                            [
                                [
                                    "zero_padding2d_1",
                                    0,
                                    0,
                                    {}
                                ]
                            ]
                        ],
                        "name": "conv_1"
                    },
                    {
                        "class_name": "BatchNorm",
                        "config": {
                            "beta_constraint": null,
                            "gamma_initializer": {
                                "class_name": "Ones",
                                "config": {}
                            },
                            "moving_mean_initializer": {
                                "class_name": "Zeros",
                                "config": {}
                            },
                            "name": "batch_norm_1",
                            "epsilon": 1e-05,
                            "trainable": true,
                            "moving_variance_initializer": {
                                "class_name": "Ones",
                                "config": {}
                            },
                            "beta_initializer": {
                                "class_name": "Zeros",
                                "config": {}
                            },
                            "scale": true,
                            "axis": 1,
                            "gamma_constraint": null,
                            "gamma_regularizer": null,
                            "beta_regularizer": null,
                            "momentum": 0.1,
                            "center": true
                        },
                        "inbound_nodes": [
                            [
                                [
                                    "conv_1",
                                    0,
                                    0,
                                    {}
                                ]
                            ]
                        ],
                        "name": "batch_norm_1"
                    },
                    {
                        "class_name": "Activation",
                        "config": {
                            "activation": "relu",
                            "trainable": true,
                            "name": "activation_1"
                        },
                        "inbound_nodes": [
                            [
                                [
                                    "batch_norm_1",
                                    0,
                                    0,
                                    {}
                                ]
                            ]
                        ],
                        "name": "activation_1"
                    },
                    {
                        "class_name": "BatchNorm",
                        "config": {
                            "beta_constraint": null,
                            "gamma_initializer": {
                                "class_name": "Ones",
                                "config": {}
                            },
                            "moving_mean_initializer": {
                                "class_name": "Zeros",
                                "config": {}
                            },
                            "name": "batch_norm_2",
                            "epsilon": 1e-05,
                            "trainable": true,
                            "moving_variance_initializer": {
                                "class_name": "Ones",
                                "config": {}
                            },
                            "beta_initializer": {
                                "class_name": "Zeros",
                                "config": {}
                            },
                            "scale": true,
                            "axis": 1,
                            "gamma_constraint": null,
                            "gamma_regularizer": null,
                            "beta_regularizer": null,
                            "momentum": 0.1,
                            "center": true
                        },
                        "inbound_nodes": [
                            [
                                [
                                    "activation_1",
                                    0,
                                    0,
                                    {}
                                ]
                            ]
                        ],
                        "name": "batch_norm_2"
                    },
                    {
                        "class_name": "Activation",
                        "config": {
                            "activation": "relu",
                            "trainable": true,
                            "name": "activation_2"
                        },
                        "inbound_nodes": [
                            [
                                [
                                    "batch_norm_2",
                                    0,
                                    0,
                                    {}
                                ]
                            ]
                        ],
                        "name": "activation_2"
                    },
                    {
                        "class_name": "Conv",
                        "config": {
                            "padding": "valid",
                            "kernel_initializer": {
                                "class_name": "VarianceScaling",
                                "config": {
                                    "distribution": "uniform",
                                    "scale": 1.0,
                                    "seed": null,
                                    "mode": "fan_avg"
                                }
                            },
                            "name": "conv_2",
                            "bias_regularizer": null,
                            "bias_constraint": null,
                            "activation": "linear",
                            "trainable": true,
                            "data_format": "channels_first",
                            "output_dim": 64,
                            "kernel_constraint": null,
                            "strides": [
                                1,
                                1
                            ],
                            "dilation_rate": [
                                1,
                                1
                            ],
                            "kernel_regularizer": null,
                            "filters": 64,
                            "bias_initializer": {
                                "class_name": "Zeros",
                                "config": {}
                            },
                            "use_bias": true,
                            "activity_regularizer": null,
                            "kernel_size": [
                                1,
                                1
                            ],
                            "size": 1
                        },
                        "inbound_nodes": [
                            [
                                [
                                    "activation_2",
                                    0,
                                    0,
                                    {}
                                ]
                            ]
                        ],
                        "name": "conv_2"
                    },
                    {
                        "class_name": "BatchNorm",
                        "config": {
                            "beta_constraint": null,
                            "gamma_initializer": {
                                "class_name": "Ones",
                                "config": {}
                            },
                            "moving_mean_initializer": {
                                "class_name": "Zeros",
                                "config": {}
                            },
                            "name": "batch_norm_3",
                            "epsilon": 1e-05,
                            "trainable": true,
                            "moving_variance_initializer": {
                                "class_name": "Ones",
                                "config": {}
                            },
                            "beta_initializer": {
                                "class_name": "Zeros",
                                "config": {}
                            },
                            "scale": true,
                            "axis": 1,
                            "gamma_constraint": null,
                            "gamma_regularizer": null,
                            "beta_regularizer": null,
                            "momentum": 0.1,
                            "center": true
                        },
                        "inbound_nodes": [
                            [
                                [
                                    "conv_2",
                                    0,
                                    0,
                                    {}
                                ]
                            ]
                        ],
                        "name": "batch_norm_3"
                    },
                    {
                        "class_name": "Activation",
                        "config": {
                            "activation": "relu",
                            "trainable": true,
                            "name": "activation_3"
                        },
                        "inbound_nodes": [
                            [
                                [
                                    "batch_norm_3",
                                    0,
                                    0,
                                    {}
                                ]
                            ]
                        ],
                        "name": "activation_3"
                    },
                    {
                        "class_name": "Conv",
                        "config": {
                            "padding": "valid",
                            "kernel_initializer": {
                                "class_name": "VarianceScaling",
                                "config": {
                                    "distribution": "uniform",
                                    "scale": 1.0,
                                    "seed": null,
                                    "mode": "fan_avg"
                                }
                            },
                            "name": "conv_3",
                            "bias_regularizer": null,
                            "bias_constraint": null,
                            "activation": "linear",
                            "trainable": true,
                            "data_format": "channels_first",
                            "output_dim": 64,
                            "kernel_constraint": null,
                            "strides": [
                                1,
                                1
                            ],
                            "dilation_rate": [
                                1,
                                1
                            ],
                            "kernel_regularizer": null,
                            "filters": 64,
                            "bias_initializer": {
                                "class_name": "Zeros",
                                "config": {}
                            },
                            "use_bias": true,
                            "activity_regularizer": null,
                            "kernel_size": [
                                3,
                                3
                            ],
                            "size": 3
                        },
                        "inbound_nodes": [
                            [
                                [
                                    "activation_3",
                                    0,
                                    0,
                                    {}
                                ]
                            ]
                        ],
                        "name": "conv_3"
                    },
                    {
                        "class_name": "BatchNorm",
                        "config": {
                            "beta_constraint": null,
                            "gamma_initializer": {
                                "class_name": "Ones",
                                "config": {}
                            },
                            "moving_mean_initializer": {
                                "class_name": "Zeros",
                                "config": {}
                            },
                            "name": "batch_norm_4",
                            "epsilon": 1e-05,
                            "trainable": true,
                            "moving_variance_initializer": {
                                "class_name": "Ones",
                                "config": {}
                            },
                            "beta_initializer": {
                                "class_name": "Zeros",
                                "config": {}
                            },
                            "scale": true,
                            "axis": 1,
                            "gamma_constraint": null,
                            "gamma_regularizer": null,
                            "beta_regularizer": null,
                            "momentum": 0.1,
                            "center": true
                        },
                        "inbound_nodes": [
                            [
                                [
                                    "conv_3",
                                    0,
                                    0,
                                    {}
                                ]
                            ]
                        ],
                        "name": "batch_norm_4"
                    },
                    {
                        "class_name": "Activation",
                        "config": {
                            "activation": "relu",
                            "trainable": true,
                            "name": "activation_4"
                        },
                        "inbound_nodes": [
                            [
                                [
                                    "batch_norm_4",
                                    0,
                                    0,
                                    {}
                                ]
                            ]
                        ],
                        "name": "activation_4"
                    },
                    {
                        "class_name": "Conv",
                        "config": {
                            "padding": "valid",
                            "kernel_initializer": {
                                "class_name": "VarianceScaling",
                                "config": {
                                    "distribution": "uniform",
                                    "scale": 1.0,
                                    "seed": null,
                                    "mode": "fan_avg"
                                }
                            },
                            "name": "conv_4",
                            "bias_regularizer": null,
                            "bias_constraint": null,
                            "activation": "linear",
                            "trainable": true,
                            "data_format": "channels_first",
                            "output_dim": 128,
                            "kernel_constraint": null,
                            "strides": [
                                1,
                                1
                            ],
                            "dilation_rate": [
                                1,
                                1
                            ],
                            "kernel_regularizer": null,
                            "filters": 128,
                            "bias_initializer": {
                                "class_name": "Zeros",
                                "config": {}
                            },
                            "use_bias": true,
                            "activity_regularizer": null,
                            "kernel_size": [
                                1,
                                1
                            ],
                            "size": 1
                        },
                        "inbound_nodes": [
                            [
                                [
                                    "activation_4",
                                    0,
                                    0,
                                    {}
                                ]
                            ]
                        ],
                        "name": "conv_4"
                    },
                    {
                        "class_name": "Conv",
                        "config": {
                            "padding": "valid",
                            "kernel_initializer": {
                                "class_name": "VarianceScaling",
                                "config": {
                                    "distribution": "uniform",
                                    "scale": 1.0,
                                    "seed": null,
                                    "mode": "fan_avg"
                                }
                            },
                            "name": "conv_5",
                            "bias_regularizer": null,
                            "bias_constraint": null,
                            "activation": "linear",
                            "trainable": true,
                            "data_format": "channels_first",
                            "output_dim": 128,
                            "kernel_constraint": null,
                            "strides": [
                                1,
                                1
                            ],
                            "dilation_rate": [
                                1,
                                1
                            ],
                            "kernel_regularizer": null,
                            "filters": 128,
                            "bias_initializer": {
                                "class_name": "Zeros",
                                "config": {}
                            },
                            "use_bias": true,
                            "activity_regularizer": null,
                            "kernel_size": [
                                1,
                                1
                            ],
                            "size": 1
                        },
                        "inbound_nodes": [
                            [
                                [
                                    "activation_1",
                                    0,
                                    0,
                                    {}
                                ]
                            ]
                        ],
                        "name": "conv_5"
                    },
                    {
                        "class_name": "Add",
                        "config": {
                            "trainable": true,
                            "name": "add_1"
                        },
                        "inbound_nodes": [
                            [
                                [
                                    "conv_4",
                                    0,
                                    0,
                                    {}
                                ],
                                [
                                    "conv_5",
                                    0,
                                    0,
                                    {}
                                ]
                            ]
                        ],
                        "name": "add_1"
                    },
                    {
                        "class_name": "MaxPooling2D",
                        "config": {
                            "name": "max_pooling2d_1",
                            "trainable": true,
                            "data_format": "channels_first",
                            "pool_size": [
                                2,
                                2
                            ],
                            "padding": "valid",
                            "strides": [
                                2,
                                2
                            ]
                        },
                        "inbound_nodes": [
                            [
                                [
                                    "add_1",
                                    0,
                                    0,
                                    {}
                                ]
                            ]
                        ],
                        "name": "max_pooling2d_1"
                    },
                    {
                        "class_name": "BatchNorm",
                        "config": {
                            "beta_constraint": null,
                            "gamma_initializer": {
                                "class_name": "Ones",
                                "config": {}
                            },
                            "moving_mean_initializer": {
                                "class_name": "Zeros",
                                "config": {}
                            },
                            "name": "batch_norm_5",
                            "epsilon": 1e-05,
                            "trainable": true,
                            "moving_variance_initializer": {
                                "class_name": "Ones",
                                "config": {}
                            },
                            "beta_initializer": {
                                "class_name": "Zeros",
                                "config": {}
                            },
                            "scale": true,
                            "axis": 1,
                            "gamma_constraint": null,
                            "gamma_regularizer": null,
                            "beta_regularizer": null,
                            "momentum": 0.1,
                            "center": true
                        },
                        "inbound_nodes": [
                            [
                                [
                                    "max_pooling2d_1",
                                    0,
                                    0,
                                    {}
                                ]
                            ]
                        ],
                        "name": "batch_norm_5"
                    },
                    {
                        "class_name": "Activation",
                        "config": {
                            "activation": "relu",
                            "trainable": true,
                            "name": "activation_5"
                        },
                        "inbound_nodes": [
                            [
                                [
                                    "batch_norm_5",
                                    0,
                                    0,
                                    {}
                                ]
                            ]
                        ],
                        "name": "activation_5"
                    },
                    {
                        "class_name": "Conv",
                        "config": {
                            "padding": "valid",
                            "kernel_initializer": {
                                "class_name": "VarianceScaling",
                                "config": {
                                    "distribution": "uniform",
                                    "scale": 1.0,
                                    "seed": null,
                                    "mode": "fan_avg"
                                }
                            },
                            "name": "conv_6",
                            "bias_regularizer": null,
                            "bias_constraint": null,
                            "activation": "linear",
                            "trainable": true,
                            "data_format": "channels_first",
                            "output_dim": 64,
                            "kernel_constraint": null,
                            "strides": [
                                1,
                                1
                            ],
                            "dilation_rate": [
                                1,
                                1
                            ],
                            "kernel_regularizer": null,
                            "filters": 64,
                            "bias_initializer": {
                                "class_name": "Zeros",
                                "config": {}
                            },
                            "use_bias": true,
                            "activity_regularizer": null,
                            "kernel_size": [
                                1,
                                1
                            ],
                            "size": 1
                        },
                        "inbound_nodes": [
                            [
                                [
                                    "activation_5",
                                    0,
                                    0,
                                    {}
                                ]
                            ]
                        ],
                        "name": "conv_6"
                    },
                    {
                        "class_name": "BatchNorm",
                        "config": {
                            "beta_constraint": null,
                            "gamma_initializer": {
                                "class_name": "Ones",
                                "config": {}
                            },
                            "moving_mean_initializer": {
                                "class_name": "Zeros",
                                "config": {}
                            },
                            "name": "batch_norm_6",
                            "epsilon": 1e-05,
                            "trainable": true,
                            "moving_variance_initializer": {
                                "class_name": "Ones",
                                "config": {}
                            },
                            "beta_initializer": {
                                "class_name": "Zeros",
                                "config": {}
                            },
                            "scale": true,
                            "axis": 1,
                            "gamma_constraint": null,
                            "gamma_regularizer": null,
                            "beta_regularizer": null,
                            "momentum": 0.1,
                            "center": true
                        },
                        "inbound_nodes": [
                            [
                                [
                                    "conv_6",
                                    0,
                                    0,
                                    {}
                                ]
                            ]
                        ],
                        "name": "batch_norm_6"
                    },
                    {
                        "class_name": "Activation",
                        "config": {
                            "activation": "relu",
                            "trainable": true,
                            "name": "activation_6"
                        },
                        "inbound_nodes": [
                            [
                                [
                                    "batch_norm_6",
                                    0,
                                    0,
                                    {}
                                ]
                            ]
                        ],
                        "name": "activation_6"
                    },
                    {
                        "class_name": "Conv",
                        "config": {
                            "padding": "valid",
                            "kernel_initializer": {
                                "class_name": "VarianceScaling",
                                "config": {
                                    "distribution": "uniform",
                                    "scale": 1.0,
                                    "seed": null,
                                    "mode": "fan_avg"
                                }
                            },
                            "name": "conv_7",
                            "bias_regularizer": null,
                            "bias_constraint": null,
                            "activation": "linear",
                            "trainable": true,
                            "data_format": "channels_first",
                            "output_dim": 64,
                            "kernel_constraint": null,
                            "strides": [
                                1,
                                1
                            ],
                            "dilation_rate": [
                                1,
                                1
                            ],
                            "kernel_regularizer": null,
                            "filters": 64,
                            "bias_initializer": {
                                "class_name": "Zeros",
                                "config": {}
                            },
                            "use_bias": true,
                            "activity_regularizer": null,
                            "kernel_size": [
                                3,
                                3
                            ],
                            "size": 3
                        },
                        "inbound_nodes": [
                            [
                                [
                                    "activation_6",
                                    0,
                                    0,
                                    {}
                                ]
                            ]
                        ],
                        "name": "conv_7"
                    },
                    {
                        "class_name": "BatchNorm",
                        "config": {
                            "beta_constraint": null,
                            "gamma_initializer": {
                                "class_name": "Ones",
                                "config": {}
                            },
                            "moving_mean_initializer": {
                                "class_name": "Zeros",
                                "config": {}
                            },
                            "name": "batch_norm_7",
                            "epsilon": 1e-05,
                            "trainable": true,
                            "moving_variance_initializer": {
                                "class_name": "Ones",
                                "config": {}
                            },
                            "beta_initializer": {
                                "class_name": "Zeros",
                                "config": {}
                            },
                            "scale": true,
                            "axis": 1,
                            "gamma_constraint": null,
                            "gamma_regularizer": null,
                            "beta_regularizer": null,
                            "momentum": 0.1,
                            "center": true
                        },
                        "inbound_nodes": [
                            [
                                [
                                    "conv_7",
                                    0,
                                    0,
                                    {}
                                ]
                            ]
                        ],
                        "name": "batch_norm_7"
                    },
                    {
                        "class_name": "Activation",
                        "config": {
                            "activation": "relu",
                            "trainable": true,
                            "name": "activation_7"
                        },
                        "inbound_nodes": [
                            [
                                [
                                    "batch_norm_7",
                                    0,
                                    0,
                                    {}
                                ]
                            ]
                        ],
                        "name": "activation_7"
                    },
                    {
                        "class_name": "Conv",
                        "config": {
                            "padding": "valid",
                            "kernel_initializer": {
                                "class_name": "VarianceScaling",
                                "config": {
                                    "distribution": "uniform",
                                    "scale": 1.0,
                                    "seed": null,
                                    "mode": "fan_avg"
                                }
                            },
                            "name": "conv_8",
                            "bias_regularizer": null,
                            "bias_constraint": null,
                            "activation": "linear",
                            "trainable": true,
                            "data_format": "channels_first",
                            "output_dim": 128,
                            "kernel_constraint": null,
                            "strides": [
                                1,
                                1
                            ],
                            "dilation_rate": [
                                1,
                                1
                            ],
                            "kernel_regularizer": null,
                            "filters": 128,
                            "bias_initializer": {
                                "class_name": "Zeros",
                                "config": {}
                            },
                            "use_bias": true,
                            "activity_regularizer": null,
                            "kernel_size": [
                                1,
                                1
                            ],
                            "size": 1
                        },
                        "inbound_nodes": [
                            [
                                [
                                    "activation_7",
                                    0,
                                    0,
                                    {}
                                ]
                            ]
                        ],
                        "name": "conv_8"
                    },
                    {
                        "class_name": "Add",
                        "config": {
                            "trainable": true,
                            "name": "add_2"
                        },
                        "inbound_nodes": [
                            [
                                [
                                    "conv_8",
                                    0,
                                    0,
                                    {}
                                ],
                                [
                                    "max_pooling2d_1",
                                    0,
                                    0,
                                    {}
                                ]
                            ]
                        ],
                        "name": "add_2"
                    },
                    {
                        "class_name": "BatchNorm",
                        "config": {
                            "beta_constraint": null,
                            "gamma_initializer": {
                                "class_name": "Ones",
                                "config": {}
                            },
                            "moving_mean_initializer": {
                                "class_name": "Zeros",
                                "config": {}
                            },
                            "name": "batch_norm_8",
                            "epsilon": 1e-05,
                            "trainable": true,
                            "moving_variance_initializer": {
                                "class_name": "Ones",
                                "config": {}
                            },
                            "beta_initializer": {
                                "class_name": "Zeros",
                                "config": {}
                            },
                            "scale": true,
                            "axis": 1,
                            "gamma_constraint": null,
                            "gamma_regularizer": null,
                            "beta_regularizer": null,
                            "momentum": 0.1,
                            "center": true
                        },
                        "inbound_nodes": [
                            [
                                [
                                    "add_2",
                                    0,
                                    0,
                                    {}
                                ]
                            ]
                        ],
                        "name": "batch_norm_8"
                    },
                    {
                        "class_name": "Activation",
                        "config": {
                            "activation": "relu",
                            "trainable": true,
                            "name": "activation_8"
                        },
                        "inbound_nodes": [
                            [
                                [
                                    "batch_norm_8",
                                    0,
                                    0,
                                    {}
                                ]
                            ]
                        ],
                        "name": "activation_8"
                    },
                    {
                        "class_name": "Conv",
                        "config": {
                            "padding": "valid",
                            "kernel_initializer": {
                                "class_name": "VarianceScaling",
                                "config": {
                                    "distribution": "uniform",
                                    "scale": 1.0,
                                    "seed": null,
                                    "mode": "fan_avg"
                                }
                            },
                            "name": "conv_9",
                            "bias_regularizer": null,
                            "bias_constraint": null,
                            "activation": "linear",
                            "trainable": true,
                            "data_format": "channels_first",
                            "output_dim": 128,
                            "kernel_constraint": null,
                            "strides": [
                                1,
                                1
                            ],
                            "dilation_rate": [
                                1,
                                1
                            ],
                            "kernel_regularizer": null,
                            "filters": 128,
                            "bias_initializer": {
                                "class_name": "Zeros",
                                "config": {}
                            },
                            "use_bias": true,
                            "activity_regularizer": null,
                            "kernel_size": [
                                1,
                                1
                            ],
                            "size": 1
                        },
                        "inbound_nodes": [
                            [
                                [
                                    "activation_8",
                                    0,
                                    0,
                                    {}
                                ]
                            ]
                        ],
                        "name": "conv_9"
                    },
                    {
                        "class_name": "BatchNorm",
                        "config": {
                            "beta_constraint": null,
                            "gamma_initializer": {
                                "class_name": "Ones",
                                "config": {}
                            },
                            "moving_mean_initializer": {
                                "class_name": "Zeros",
                                "config": {}
                            },
                            "name": "batch_norm_9",
                            "epsilon": 1e-05,
                            "trainable": true,
                            "moving_variance_initializer": {
                                "class_name": "Ones",
                                "config": {}
                            },
                            "beta_initializer": {
                                "class_name": "Zeros",
                                "config": {}
                            },
                            "scale": true,
                            "axis": 1,
                            "gamma_constraint": null,
                            "gamma_regularizer": null,
                            "beta_regularizer": null,
                            "momentum": 0.1,
                            "center": true
                        },
                        "inbound_nodes": [
                            [
                                [
                                    "conv_9",
                                    0,
                                    0,
                                    {}
                                ]
                            ]
                        ],
                        "name": "batch_norm_9"
                    },
                    {
                        "class_name": "Activation",
                        "config": {
                            "activation": "relu",
                            "trainable": true,
                            "name": "activation_9"
                        },
                        "inbound_nodes": [
                            [
                                [
                                    "batch_norm_9",
                                    0,
                                    0,
                                    {}
                                ]
                            ]
                        ],
                        "name": "activation_9"
                    },
                    {
                        "class_name": "Conv",
                        "config": {
                            "padding": "valid",
                            "kernel_initializer": {
                                "class_name": "VarianceScaling",
                                "config": {
                                    "distribution": "uniform",
                                    "scale": 1.0,
                                    "seed": null,
                                    "mode": "fan_avg"
                                }
                            },
                            "name": "conv_10",
                            "bias_regularizer": null,
                            "bias_constraint": null,
                            "activation": "linear",
                            "trainable": true,
                            "data_format": "channels_first",
                            "output_dim": 128,
                            "kernel_constraint": null,
                            "strides": [
                                1,
                                1
                            ],
                            "dilation_rate": [
                                1,
                                1
                            ],
                            "kernel_regularizer": null,
                            "filters": 128,
                            "bias_initializer": {
                                "class_name": "Zeros",
                                "config": {}
                            },
                            "use_bias": true,
                            "activity_regularizer": null,
                            "kernel_size": [
                                3,
                                3
                            ],
                            "size": 3
                        },
                        "inbound_nodes": [
                            [
                                [
                                    "activation_9",
                                    0,
                                    0,
                                    {}
                                ]
                            ]
                        ],
                        "name": "conv_10"
                    },
                    {
                        "class_name": "BatchNorm",
                        "config": {
                            "beta_constraint": null,
                            "gamma_initializer": {
                                "class_name": "Ones",
                                "config": {}
                            },
                            "moving_mean_initializer": {
                                "class_name": "Zeros",
                                "config": {}
                            },
                            "name": "batch_norm_10",
                            "epsilon": 1e-05,
                            "trainable": true,
                            "moving_variance_initializer": {
                                "class_name": "Ones",
                                "config": {}
                            },
                            "beta_initializer": {
                                "class_name": "Zeros",
                                "config": {}
                            },
                            "scale": true,
                            "axis": 1,
                            "gamma_constraint": null,
                            "gamma_regularizer": null,
                            "beta_regularizer": null,
                            "momentum": 0.1,
                            "center": true
                        },
                        "inbound_nodes": [
                            [
                                [
                                    "conv_10",
                                    0,
                                    0,
                                    {}
                                ]
                            ]
                        ],
                        "name": "batch_norm_10"
                    },
                    {
                        "class_name": "Activation",
                        "config": {
                            "activation": "relu",
                            "trainable": true,
                            "name": "activation_10"
                        },
                        "inbound_nodes": [
                            [
                                [
                                    "batch_norm_10",
                                    0,
                                    0,
                                    {}
                                ]
                            ]
                        ],
                        "name": "activation_10"
                    },
                    {
                        "class_name": "Conv",
                        "config": {
                            "padding": "valid",
                            "kernel_initializer": {
                                "class_name": "VarianceScaling",
                                "config": {
                                    "distribution": "uniform",
                                    "scale": 1.0,
                                    "seed": null,
                                    "mode": "fan_avg"
                                }
                            },
                            "name": "conv_11",
                            "bias_regularizer": null,
                            "bias_constraint": null,
                            "activation": "linear",
                            "trainable": true,
                            "data_format": "channels_first",
                            "output_dim": 256,
                            "kernel_constraint": null,
                            "strides": [
                                1,
                                1
                            ],
                            "dilation_rate": [
                                1,
                                1
                            ],
                            "kernel_regularizer": null,
                            "filters": 256,
                            "bias_initializer": {
                                "class_name": "Zeros",
                                "config": {}
                            },
                            "use_bias": true,
                            "activity_regularizer": null,
                            "kernel_size": [
                                1,
                                1
                            ],
                            "size": 1
                        },
                        "inbound_nodes": [
                            [
                                [
                                    "activation_10",
                                    0,
                                    0,
                                    {}
                                ]
                            ]
                        ],
                        "name": "conv_11"
                    },
                    {
                        "class_name": "Conv",
                        "config": {
                            "padding": "valid",
                            "kernel_initializer": {
                                "class_name": "VarianceScaling",
                                "config": {
                                    "distribution": "uniform",
                                    "scale": 1.0,
                                    "seed": null,
                                    "mode": "fan_avg"
                                }
                            },
                            "name": "conv_12",
                            "bias_regularizer": null,
                            "bias_constraint": null,
                            "activation": "linear",
                            "trainable": true,
                            "data_format": "channels_first",
                            "output_dim": 256,
                            "kernel_constraint": null,
                            "strides": [
                                1,
                                1
                            ],
                            "dilation_rate": [
                                1,
                                1
                            ],
                            "kernel_regularizer": null,
                            "filters": 256,
                            "bias_initializer": {
                                "class_name": "Zeros",
                                "config": {}
                            },
                            "use_bias": true,
                            "activity_regularizer": null,
                            "kernel_size": [
                                1,
                                1
                            ],
                            "size": 1
                        },
                        "inbound_nodes": [
                            [
                                [
                                    "add_2",
                                    0,
                                    0,
                                    {}
                                ]
                            ]
                        ],
                        "name": "conv_12"
                    },
                    {
                        "class_name": "Add",
                        "config": {
                            "trainable": true,
                            "name": "add_3"
                        },
                        "inbound_nodes": [
                            [
                                [
                                    "conv_11",
                                    0,
                                    0,
                                    {}
                                ],
                                [
                                    "conv_12",
                                    0,
                                    0,
                                    {}
                                ]
                            ]
                        ],
                        "name": "add_3"
                    },
                    {
                        "class_name": "BatchNorm",
                        "config": {
                            "beta_constraint": null,
                            "gamma_initializer": {
                                "class_name": "Ones",
                                "config": {}
                            },
                            "moving_mean_initializer": {
                                "class_name": "Zeros",
                                "config": {}
                            },
                            "name": "batch_norm_11",
                            "epsilon": 1e-05,
                            "trainable": true,
                            "moving_variance_initializer": {
                                "class_name": "Ones",
                                "config": {}
                            },
                            "beta_initializer": {
                                "class_name": "Zeros",
                                "config": {}
                            },
                            "scale": true,
                            "axis": 1,
                            "gamma_constraint": null,
                            "gamma_regularizer": null,
                            "beta_regularizer": null,
                            "momentum": 0.1,
                            "center": true
                        },
                        "inbound_nodes": [
                            [
                                [
                                    "add_3",
                                    0,
                                    0,
                                    {}
                                ]
                            ]
                        ],
                        "name": "batch_norm_11"
                    },
                    {
                        "class_name": "Activation",
                        "config": {
                            "activation": "relu",
                            "trainable": true,
                            "name": "activation_11"
                        },
                        "inbound_nodes": [
                            [
                                [
                                    "batch_norm_11",
                                    0,
                                    0,
                                    {}
                                ]
                            ]
                        ],
                        "name": "activation_11"
                    },
                    {
                        "class_name": "Conv",
                        "config": {
                            "padding": "valid",
                            "kernel_initializer": {
                                "class_name": "VarianceScaling",
                                "config": {
                                    "distribution": "uniform",
                                    "scale": 1.0,
                                    "seed": null,
                                    "mode": "fan_avg"
                                }
                            },
                            "name": "conv_13",
                            "bias_regularizer": null,
                            "bias_constraint": null,
                            "activation": "linear",
                            "trainable": true,
                            "data_format": "channels_first",
                            "output_dim": 128,
                            "kernel_constraint": null,
                            "strides": [
                                1,
                                1
                            ],
                            "dilation_rate": [
                                1,
                                1
                            ],
                            "kernel_regularizer": null,
                            "filters": 128,
                            "bias_initializer": {
                                "class_name": "Zeros",
                                "config": {}
                            },
                            "use_bias": true,
                            "activity_regularizer": null,
                            "kernel_size": [
                                1,
                                1
                            ],
                            "size": 1
                        },
                        "inbound_nodes": [
                            [
                                [
                                    "activation_11",
                                    0,
                                    0,
                                    {}
                                ]
                            ]
                        ],
                        "name": "conv_13"
                    },
                    {
                        "class_name": "BatchNorm",
                        "config": {
                            "beta_constraint": null,
                            "gamma_initializer": {
                                "class_name": "Ones",
                                "config": {}
                            },
                            "moving_mean_initializer": {
                                "class_name": "Zeros",
                                "config": {}
                            },
                            "name": "batch_norm_12",
                            "epsilon": 1e-05,
                            "trainable": true,
                            "moving_variance_initializer": {
                                "class_name": "Ones",
                                "config": {}
                            },
                            "beta_initializer": {
                                "class_name": "Zeros",
                                "config": {}
                            },
                            "scale": true,
                            "axis": 1,
                            "gamma_constraint": null,
                            "gamma_regularizer": null,
                            "beta_regularizer": null,
                            "momentum": 0.1,
                            "center": true
                        },
                        "inbound_nodes": [
                            [
                                [
                                    "conv_13",
                                    0,
                                    0,
                                    {}
                                ]
                            ]
                        ],
                        "name": "batch_norm_12"
                    },
                    {
                        "class_name": "Activation",
                        "config": {
                            "activation": "relu",
                            "trainable": true,
                            "name": "activation_12"
                        },
                        "inbound_nodes": [
                            [
                                [
                                    "batch_norm_12",
                                    0,
                                    0,
                                    {}
                                ]
                            ]
                        ],
                        "name": "activation_12"
                    },
                    {
                        "class_name": "Conv",
                        "config": {
                            "padding": "valid",
                            "kernel_initializer": {
                                "class_name": "VarianceScaling",
                                "config": {
                                    "distribution": "uniform",
                                    "scale": 1.0,
                                    "seed": null,
                                    "mode": "fan_avg"
                                }
                            },
                            "name": "conv_14",
                            "bias_regularizer": null,
                            "bias_constraint": null,
                            "activation": "linear",
                            "trainable": true,
                            "data_format": "channels_first",
                            "output_dim": 128,
                            "kernel_constraint": null,
                            "strides": [
                                1,
                                1
                            ],
                            "dilation_rate": [
                                1,
                                1
                            ],
                            "kernel_regularizer": null,
                            "filters": 128,
                            "bias_initializer": {
                                "class_name": "Zeros",
                                "config": {}
                            },
                            "use_bias": true,
                            "activity_regularizer": null,
                            "kernel_size": [
                                3,
                                3
                            ],
                            "size": 3
                        },
                        "inbound_nodes": [
                            [
                                [
                                    "activation_12",
                                    0,
                                    0,
                                    {}
                                ]
                            ]
                        ],
                        "name": "conv_14"
                    },
                    {
                        "class_name": "BatchNorm",
                        "config": {
                            "beta_constraint": null,
                            "gamma_initializer": {
                                "class_name": "Ones",
                                "config": {}
                            },
                            "moving_mean_initializer": {
                                "class_name": "Zeros",
                                "config": {}
                            },
                            "name": "batch_norm_13",
                            "epsilon": 1e-05,
                            "trainable": true,
                            "moving_variance_initializer": {
                                "class_name": "Ones",
                                "config": {}
                            },
                            "beta_initializer": {
                                "class_name": "Zeros",
                                "config": {}
                            },
                            "scale": true,
                            "axis": 1,
                            "gamma_constraint": null,
                            "gamma_regularizer": null,
                            "beta_regularizer": null,
                            "momentum": 0.1,
                            "center": true
                        },
                        "inbound_nodes": [
                            [
                                [
                                    "conv_14",
                                    0,
                                    0,
                                    {}
                                ]
                            ]
                        ],
                        "name": "batch_norm_13"
                    },
                    {
                        "class_name": "Activation",
                        "config": {
                            "activation": "relu",
                            "trainable": true,
                            "name": "activation_13"
                        },
                        "inbound_nodes": [
                            [
                                [
                                    "batch_norm_13",
                                    0,
                                    0,
                                    {}
                                ]
                            ]
                        ],
                        "name": "activation_13"
                    },
                    {
                        "class_name": "Conv",
                        "config": {
                            "padding": "valid",
                            "kernel_initializer": {
                                "class_name": "VarianceScaling",
                                "config": {
                                    "distribution": "uniform",
                                    "scale": 1.0,
                                    "seed": null,
                                    "mode": "fan_avg"
                                }
                            },
                            "name": "conv_15",
                            "bias_regularizer": null,
                            "bias_constraint": null,
                            "activation": "linear",
                            "trainable": true,
                            "data_format": "channels_first",
                            "output_dim": 256,
                            "kernel_constraint": null,
                            "strides": [
                                1,
                                1
                            ],
                            "dilation_rate": [
                                1,
                                1
                            ],
                            "kernel_regularizer": null,
                            "filters": 256,
                            "bias_initializer": {
                                "class_name": "Zeros",
                                "config": {}
                            },
                            "use_bias": true,
                            "activity_regularizer": null,
                            "kernel_size": [
                                1,
                                1
                            ],
                            "size": 1
                        },
                        "inbound_nodes": [
                            [
                                [
                                    "activation_13",
                                    0,
                                    0,
                                    {}
                                ]
                            ]
                        ],
                        "name": "conv_15"
                    },
                    {
                        "class_name": "Add",
                        "config": {
                            "trainable": true,
                            "name": "add_4"
                        },
                        "inbound_nodes": [
                            [
                                [
                                    "conv_15",
                                    0,
                                    0,
                                    {}
                                ],
                                [
                                    "add_3",
                                    0,
                                    0,
                                    {}
                                ]
                            ]
                        ],
                        "name": "add_4"
                    },
                    {
                        "class_name": "BatchNorm",
                        "config": {
                            "beta_constraint": null,
                            "gamma_initializer": {
                                "class_name": "Ones",
                                "config": {}
                            },
                            "moving_mean_initializer": {
                                "class_name": "Zeros",
                                "config": {}
                            },
                            "name": "batch_norm_14",
                            "epsilon": 1e-05,
                            "trainable": true,
                            "moving_variance_initializer": {
                                "class_name": "Ones",
                                "config": {}
                            },
                            "beta_initializer": {
                                "class_name": "Zeros",
                                "config": {}
                            },
                            "scale": true,
                            "axis": 1,
                            "gamma_constraint": null,
                            "gamma_regularizer": null,
                            "beta_regularizer": null,
                            "momentum": 0.1,
                            "center": true
                        },
                        "inbound_nodes": [
                            [
                                [
                                    "add_4",
                                    0,
                                    0,
                                    {}
                                ]
                            ]
                        ],
                        "name": "batch_norm_14"
                    },
                    {
                        "class_name": "Activation",
                        "config": {
                            "activation": "relu",
                            "trainable": true,
                            "name": "activation_14"
                        },
                        "inbound_nodes": [
                            [
                                [
                                    "batch_norm_14",
                                    0,
                                    0,
                                    {}
                                ]
                            ]
                        ],
                        "name": "activation_14"
                    },
                    {
                        "class_name": "Conv",
                        "config": {
                            "padding": "valid",
                            "kernel_initializer": {
                                "class_name": "VarianceScaling",
                                "config": {
                                    "distribution": "uniform",
                                    "scale": 1.0,
                                    "seed": null,
                                    "mode": "fan_avg"
                                }
                            },
                            "name": "conv_16",
                            "bias_regularizer": null,
                            "bias_constraint": null,
                            "activation": "linear",
                            "trainable": true,
                            "data_format": "channels_first",
                            "output_dim": 128,
                            "kernel_constraint": null,
                            "strides": [
                                1,
                                1
                            ],
                            "dilation_rate": [
                                1,
                                1
                            ],
                            "kernel_regularizer": null,
                            "filters": 128,
                            "bias_initializer": {
                                "class_name": "Zeros",
                                "config": {}
                            },
                            "use_bias": true,
                            "activity_regularizer": null,
                            "kernel_size": [
                                1,
                                1
                            ],
                            "size": 1
                        },
                        "inbound_nodes": [
                            [
                                [
                                    "activation_14",
                                    0,
                                    0,
                                    {}
                                ]
                            ]
                        ],
                        "name": "conv_16"
                    },
                    {
                        "class_name": "BatchNorm",
                        "config": {
                            "beta_constraint": null,
                            "gamma_initializer": {
                                "class_name": "Ones",
                                "config": {}
                            },
                            "moving_mean_initializer": {
                                "class_name": "Zeros",
                                "config": {}
                            },
                            "name": "batch_norm_15",
                            "epsilon": 1e-05,
                            "trainable": true,
                            "moving_variance_initializer": {
                                "class_name": "Ones",
                                "config": {}
                            },
                            "beta_initializer": {
                                "class_name": "Zeros",
                                "config": {}
                            },
                            "scale": true,
                            "axis": 1,
                            "gamma_constraint": null,
                            "gamma_regularizer": null,
                            "beta_regularizer": null,
                            "momentum": 0.1,
                            "center": true
                        },
                        "inbound_nodes": [
                            [
                                [
                                    "conv_16",
                                    0,
                                    0,
                                    {}
                                ]
                            ]
                        ],
                        "name": "batch_norm_15"
                    },
                    {
                        "class_name": "Activation",
                        "config": {
                            "activation": "relu",
                            "trainable": true,
                            "name": "activation_15"
                        },
                        "inbound_nodes": [
                            [
                                [
                                    "batch_norm_15",
                                    0,
                                    0,
                                    {}
                                ]
                            ]
                        ],
                        "name": "activation_15"
                    },
                    {
                        "class_name": "Conv",
                        "config": {
                            "padding": "valid",
                            "kernel_initializer": {
                                "class_name": "VarianceScaling",
                                "config": {
                                    "distribution": "uniform",
                                    "scale": 1.0,
                                    "seed": null,
                                    "mode": "fan_avg"
                                }
                            },
                            "name": "conv_17",
                            "bias_regularizer": null,
                            "bias_constraint": null,
                            "activation": "linear",
                            "trainable": true,
                            "data_format": "channels_first",
                            "output_dim": 128,
                            "kernel_constraint": null,
                            "strides": [
                                1,
                                1
                            ],
                            "dilation_rate": [
                                1,
                                1
                            ],
                            "kernel_regularizer": null,
                            "filters": 128,
                            "bias_initializer": {
                                "class_name": "Zeros",
                                "config": {}
                            },
                            "use_bias": true,
                            "activity_regularizer": null,
                            "kernel_size": [
                                3,
                                3
                            ],
                            "size": 3
                        },
                        "inbound_nodes": [
                            [
                                [
                                    "activation_15",
                                    0,
                                    0,
                                    {}
                                ]
                            ]
                        ],
                        "name": "conv_17"
                    },
                    {
                        "class_name": "BatchNorm",
                        "config": {
                            "beta_constraint": null,
                            "gamma_initializer": {
                                "class_name": "Ones",
                                "config": {}
                            },
                            "moving_mean_initializer": {
                                "class_name": "Zeros",
                                "config": {}
                            },
                            "name": "batch_norm_16",
                            "epsilon": 1e-05,
                            "trainable": true,
                            "moving_variance_initializer": {
                                "class_name": "Ones",
                                "config": {}
                            },
                            "beta_initializer": {
                                "class_name": "Zeros",
                                "config": {}
                            },
                            "scale": true,
                            "axis": 1,
                            "gamma_constraint": null,
                            "gamma_regularizer": null,
                            "beta_regularizer": null,
                            "momentum": 0.1,
                            "center": true
                        },
                        "inbound_nodes": [
                            [
                                [
                                    "conv_17",
                                    0,
                                    0,
                                    {}
                                ]
                            ]
                        ],
                        "name": "batch_norm_16"
                    },
                    {
                        "class_name": "Activation",
                        "config": {
                            "activation": "relu",
                            "trainable": true,
                            "name": "activation_16"
                        },
                        "inbound_nodes": [
                            [
                                [
                                    "batch_norm_16",
                                    0,
                                    0,
                                    {}
                                ]
                            ]
                        ],
                        "name": "activation_16"
                    },
                    {
                        "class_name": "Conv",
                        "config": {
                            "padding": "valid",
                            "kernel_initializer": {
                                "class_name": "VarianceScaling",
                                "config": {
                                    "distribution": "uniform",
                                    "scale": 1.0,
                                    "seed": null,
                                    "mode": "fan_avg"
                                }
                            },
                            "name": "conv_18",
                            "bias_regularizer": null,
                            "bias_constraint": null,
                            "activation": "linear",
                            "trainable": true,
                            "data_format": "channels_first",
                            "output_dim": 256,
                            "kernel_constraint": null,
                            "strides": [
                                1,
                                1
                            ],
                            "dilation_rate": [
                                1,
                                1
                            ],
                            "kernel_regularizer": null,
                            "filters": 256,
                            "bias_initializer": {
                                "class_name": "Zeros",
                                "config": {}
                            },
                            "use_bias": true,
                            "activity_regularizer": null,
                            "kernel_size": [
                                1,
                                1
                            ],
                            "size": 1
                        },
                        "inbound_nodes": [
                            [
                                [
                                    "activation_16",
                                    0,
                                    0,
                                    {}
                                ]
                            ]
                        ],
                        "name": "conv_18"
                    },
                    {
                        "class_name": "Add",
                        "config": {
                            "trainable": true,
                            "name": "add_5"
                        },
                        "inbound_nodes": [
                            [
                                [
                                    "conv_18",
                                    0,
                                    0,
                                    {}
                                ],
                                [
                                    "add_4",
                                    0,
                                    0,
                                    {}
                                ]
                            ]
                        ],
                        "name": "add_5"
                    },
                    {
                        "class_name": "BatchNorm",
                        "config": {
                            "beta_constraint": null,
                            "gamma_initializer": {
                                "class_name": "Ones",
                                "config": {}
                            },
                            "moving_mean_initializer": {
                                "class_name": "Zeros",
                                "config": {}
                            },
                            "name": "batch_norm_17",
                            "epsilon": 1e-05,
                            "trainable": true,
                            "moving_variance_initializer": {
                                "class_name": "Ones",
                                "config": {}
                            },
                            "beta_initializer": {
                                "class_name": "Zeros",
                                "config": {}
                            },
                            "scale": true,
                            "axis": 1,
                            "gamma_constraint": null,
                            "gamma_regularizer": null,
                            "beta_regularizer": null,
                            "momentum": 0.1,
                            "center": true
                        },
                        "inbound_nodes": [
                            [
                                [
                                    "add_5",
                                    0,
                                    0,
                                    {}
                                ]
                            ]
                        ],
                        "name": "batch_norm_17"
                    },
                    {
                        "class_name": "Activation",
                        "config": {
                            "activation": "relu",
                            "trainable": true,
                            "name": "activation_17"
                        },
                        "inbound_nodes": [
                            [
                                [
                                    "batch_norm_17",
                                    0,
                                    0,
                                    {}
                                ]
                            ]
                        ],
                        "name": "activation_17"
                    },
                    {
                        "class_name": "Conv",
                        "config": {
                            "padding": "valid",
                            "kernel_initializer": {
                                "class_name": "VarianceScaling",
                                "config": {
                                    "distribution": "uniform",
                                    "scale": 1.0,
                                    "seed": null,
                                    "mode": "fan_avg"
                                }
                            },
                            "name": "conv_19",
                            "bias_regularizer": null,
                            "bias_constraint": null,
                            "activation": "linear",
                            "trainable": true,
                            "data_format": "channels_first",
                            "output_dim": 128,
                            "kernel_constraint": null,
                            "strides": [
                                1,
                                1
                            ],
                            "dilation_rate": [
                                1,
                                1
                            ],
                            "kernel_regularizer": null,
                            "filters": 128,
                            "bias_initializer": {
                                "class_name": "Zeros",
                                "config": {}
                            },
                            "use_bias": true,
                            "activity_regularizer": null,
                            "kernel_size": [
                                1,
                                1
                            ],
                            "size": 1
                        },
                        "inbound_nodes": [
                            [
                                [
                                    "activation_17",
                                    0,
                                    0,
                                    {}
                                ]
                            ]
                        ],
                        "name": "conv_19"
                    },
                    {
                        "class_name": "BatchNorm",
                        "config": {
                            "beta_constraint": null,
                            "gamma_initializer": {
                                "class_name": "Ones",
                                "config": {}
                            },
                            "moving_mean_initializer": {
                                "class_name": "Zeros",
                                "config": {}
                            },
                            "name": "batch_norm_18",
                            "epsilon": 1e-05,
                            "trainable": true,
                            "moving_variance_initializer": {
                                "class_name": "Ones",
                                "config": {}
                            },
                            "beta_initializer": {
                                "class_name": "Zeros",
                                "config": {}
                            },
                            "scale": true,
                            "axis": 1,
                            "gamma_constraint": null,
                            "gamma_regularizer": null,
                            "beta_regularizer": null,
                            "momentum": 0.1,
                            "center": true
                        },
                        "inbound_nodes": [
                            [
                                [
                                    "conv_19",
                                    0,
                                    0,
                                    {}
                                ]
                            ]
                        ],
                        "name": "batch_norm_18"
                    },
                    {
                        "class_name": "Activation",
                        "config": {
                            "activation": "relu",
                            "trainable": true,
                            "name": "activation_18"
                        },
                        "inbound_nodes": [
                            [
                                [
                                    "batch_norm_18",
                                    0,
                                    0,
                                    {}
                                ]
                            ]
                        ],
                        "name": "activation_18"
                    },
                    {
                        "class_name": "Conv",
                        "config": {
                            "padding": "valid",
                            "kernel_initializer": {
                                "class_name": "VarianceScaling",
                                "config": {
                                    "distribution": "uniform",
                                    "scale": 1.0,
                                    "seed": null,
                                    "mode": "fan_avg"
                                }
                            },
                            "name": "conv_20",
                            "bias_regularizer": null,
                            "bias_constraint": null,
                            "activation": "linear",
                            "trainable": true,
                            "data_format": "channels_first",
                            "output_dim": 128,
                            "kernel_constraint": null,
                            "strides": [
                                1,
                                1
                            ],
                            "dilation_rate": [
                                1,
                                1
                            ],
                            "kernel_regularizer": null,
                            "filters": 128,
                            "bias_initializer": {
                                "class_name": "Zeros",
                                "config": {}
                            },
                            "use_bias": true,
                            "activity_regularizer": null,
                            "kernel_size": [
                                3,
                                3
                            ],
                            "size": 3
                        },
                        "inbound_nodes": [
                            [
                                [
                                    "activation_18",
                                    0,
                                    0,
                                    {}
                                ]
                            ]
                        ],
                        "name": "conv_20"
                    },
                    {
                        "class_name": "BatchNorm",
                        "config": {
                            "beta_constraint": null,
                            "gamma_initializer": {
                                "class_name": "Ones",
                                "config": {}
                            },
                            "moving_mean_initializer": {
                                "class_name": "Zeros",
                                "config": {}
                            },
                            "name": "batch_norm_19",
                            "epsilon": 1e-05,
                            "trainable": true,
                            "moving_variance_initializer": {
                                "class_name": "Ones",
                                "config": {}
                            },
                            "beta_initializer": {
                                "class_name": "Zeros",
                                "config": {}
                            },
                            "scale": true,
                            "axis": 1,
                            "gamma_constraint": null,
                            "gamma_regularizer": null,
                            "beta_regularizer": null,
                            "momentum": 0.1,
                            "center": true
                        },
                        "inbound_nodes": [
                            [
                                [
                                    "conv_20",
                                    0,
                                    0,
                                    {}
                                ]
                            ]
                        ],
                        "name": "batch_norm_19"
                    },
                    {
                        "class_name": "Activation",
                        "config": {
                            "activation": "relu",
                            "trainable": true,
                            "name": "activation_19"
                        },
                        "inbound_nodes": [
                            [
                                [
                                    "batch_norm_19",
                                    0,
                                    0,
                                    {}
                                ]
                            ]
                        ],
                        "name": "activation_19"
                    },
                    {
                        "class_name": "Conv",
                        "config": {
                            "padding": "valid",
                            "kernel_initializer": {
                                "class_name": "VarianceScaling",
                                "config": {
                                    "distribution": "uniform",
                                    "scale": 1.0,
                                    "seed": null,
                                    "mode": "fan_avg"
                                }
                            },
                            "name": "conv_21",
                            "bias_regularizer": null,
                            "bias_constraint": null,
                            "activation": "linear",
                            "trainable": true,
                            "data_format": "channels_first",
                            "output_dim": 256,
                            "kernel_constraint": null,
                            "strides": [
                                1,
                                1
                            ],
                            "dilation_rate": [
                                1,
                                1
                            ],
                            "kernel_regularizer": null,
                            "filters": 256,
                            "bias_initializer": {
                                "class_name": "Zeros",
                                "config": {}
                            },
                            "use_bias": true,
                            "activity_regularizer": null,
                            "kernel_size": [
                                1,
                                1
                            ],
                            "size": 1
                        },
                        "inbound_nodes": [
                            [
                                [
                                    "activation_19",
                                    0,
                                    0,
                                    {}
                                ]
                            ]
                        ],
                        "name": "conv_21"
                    },
                    {
                        "class_name": "Add",
                        "config": {
                            "trainable": true,
                            "name": "add_6"
                        },
                        "inbound_nodes": [
                            [
                                [
                                    "conv_21",
                                    0,
                                    0,
                                    {}
                                ],
                                [
                                    "add_5",
                                    0,
                                    0,
                                    {}
                                ]
                            ]
                        ],
                        "name": "add_6"
                    },
                    {
                        "class_name": "BatchNorm",
                        "config": {
                            "beta_constraint": null,
                            "gamma_initializer": {
                                "class_name": "Ones",
                                "config": {}
                            },
                            "moving_mean_initializer": {
                                "class_name": "Zeros",
                                "config": {}
                            },
                            "name": "batch_norm_20",
                            "epsilon": 1e-05,
                            "trainable": true,
                            "moving_variance_initializer": {
                                "class_name": "Ones",
                                "config": {}
                            },
                            "beta_initializer": {
                                "class_name": "Zeros",
                                "config": {}
                            },
                            "scale": true,
                            "axis": 1,
                            "gamma_constraint": null,
                            "gamma_regularizer": null,
                            "beta_regularizer": null,
                            "momentum": 0.1,
                            "center": true
                        },
                        "inbound_nodes": [
                            [
                                [
                                    "add_6",
                                    0,
                                    0,
                                    {}
                                ]
                            ]
                        ],
                        "name": "batch_norm_20"
                    },
                    {
                        "class_name": "Activation",
                        "config": {
                            "activation": "relu",
                            "trainable": true,
                            "name": "activation_20"
                        },
                        "inbound_nodes": [
                            [
                                [
                                    "batch_norm_20",
                                    0,
                                    0,
                                    {}
                                ]
                            ]
                        ],
                        "name": "activation_20"
                    },
                    {
                        "class_name": "Conv",
                        "config": {
                            "padding": "valid",
                            "kernel_initializer": {
                                "class_name": "VarianceScaling",
                                "config": {
                                    "distribution": "uniform",
                                    "scale": 1.0,
                                    "seed": null,
                                    "mode": "fan_avg"
                                }
                            },
                            "name": "conv_22",
                            "bias_regularizer": null,
                            "bias_constraint": null,
                            "activation": "linear",
                            "trainable": true,
                            "data_format": "channels_first",
                            "output_dim": 128,
                            "kernel_constraint": null,
                            "strides": [
                                1,
                                1
                            ],
                            "dilation_rate": [
                                1,
                                1
                            ],
                            "kernel_regularizer": null,
                            "filters": 128,
                            "bias_initializer": {
                                "class_name": "Zeros",
                                "config": {}
                            },
                            "use_bias": true,
                            "activity_regularizer": null,
                            "kernel_size": [
                                1,
                                1
                            ],
                            "size": 1
                        },
                        "inbound_nodes": [
                            [
                                [
                                    "activation_20",
                                    0,
                                    0,
                                    {}
                                ]
                            ]
                        ],
                        "name": "conv_22"
                    },
                    {
                        "class_name": "BatchNorm",
                        "config": {
                            "beta_constraint": null,
                            "gamma_initializer": {
                                "class_name": "Ones",
                                "config": {}
                            },
                            "moving_mean_initializer": {
                                "class_name": "Zeros",
                                "config": {}
                            },
                            "name": "batch_norm_21",
                            "epsilon": 1e-05,
                            "trainable": true,
                            "moving_variance_initializer": {
                                "class_name": "Ones",
                                "config": {}
                            },
                            "beta_initializer": {
                                "class_name": "Zeros",
                                "config": {}
                            },
                            "scale": true,
                            "axis": 1,
                            "gamma_constraint": null,
                            "gamma_regularizer": null,
                            "beta_regularizer": null,
                            "momentum": 0.1,
                            "center": true
                        },
                        "inbound_nodes": [
                            [
                                [
                                    "conv_22",
                                    0,
                                    0,
                                    {}
                                ]
                            ]
                        ],
                        "name": "batch_norm_21"
                    },
                    {
                        "class_name": "Activation",
                        "config": {
                            "activation": "relu",
                            "trainable": true,
                            "name": "activation_21"
                        },
                        "inbound_nodes": [
                            [
                                [
                                    "batch_norm_21",
                                    0,
                                    0,
                                    {}
                                ]
                            ]
                        ],
                        "name": "activation_21"
                    },
                    {
                        "class_name": "Conv",
                        "config": {
                            "padding": "valid",
                            "kernel_initializer": {
                                "class_name": "VarianceScaling",
                                "config": {
                                    "distribution": "uniform",
                                    "scale": 1.0,
                                    "seed": null,
                                    "mode": "fan_avg"
                                }
                            },
                            "name": "conv_23",
                            "bias_regularizer": null,
                            "bias_constraint": null,
                            "activation": "linear",
                            "trainable": true,
                            "data_format": "channels_first",
                            "output_dim": 128,
                            "kernel_constraint": null,
                            "strides": [
                                1,
                                1
                            ],
                            "dilation_rate": [
                                1,
                                1
                            ],
                            "kernel_regularizer": null,
                            "filters": 128,
                            "bias_initializer": {
                                "class_name": "Zeros",
                                "config": {}
                            },
                            "use_bias": true,
                            "activity_regularizer": null,
                            "kernel_size": [
                                3,
                                3
                            ],
                            "size": 3
                        },
                        "inbound_nodes": [
                            [
                                [
                                    "activation_21",
                                    0,
                                    0,
                                    {}
                                ]
                            ]
                        ],
                        "name": "conv_23"
                    },
                    {
                        "class_name": "BatchNorm",
                        "config": {
                            "beta_constraint": null,
                            "gamma_initializer": {
                                "class_name": "Ones",
                                "config": {}
                            },
                            "moving_mean_initializer": {
                                "class_name": "Zeros",
                                "config": {}
                            },
                            "name": "batch_norm_22",
                            "epsilon": 1e-05,
                            "trainable": true,
                            "moving_variance_initializer": {
                                "class_name": "Ones",
                                "config": {}
                            },
                            "beta_initializer": {
                                "class_name": "Zeros",
                                "config": {}
                            },
                            "scale": true,
                            "axis": 1,
                            "gamma_constraint": null,
                            "gamma_regularizer": null,
                            "beta_regularizer": null,
                            "momentum": 0.1,
                            "center": true
                        },
                        "inbound_nodes": [
                            [
                                [
                                    "conv_23",
                                    0,
                                    0,
                                    {}
                                ]
                            ]
                        ],
                        "name": "batch_norm_22"
                    },
                    {
                        "class_name": "Activation",
                        "config": {
                            "activation": "relu",
                            "trainable": true,
                            "name": "activation_22"
                        },
                        "inbound_nodes": [
                            [
                                [
                                    "batch_norm_22",
                                    0,
                                    0,
                                    {}
                                ]
                            ]
                        ],
                        "name": "activation_22"
                    },
                    {
                        "class_name": "Conv",
                        "config": {
                            "padding": "valid",
                            "kernel_initializer": {
                                "class_name": "VarianceScaling",
                                "config": {
                                    "distribution": "uniform",
                                    "scale": 1.0,
                                    "seed": null,
                                    "mode": "fan_avg"
                                }
                            },
                            "name": "conv_24",
                            "bias_regularizer": null,
                            "bias_constraint": null,
                            "activation": "linear",
                            "trainable": true,
                            "data_format": "channels_first",
                            "output_dim": 256,
                            "kernel_constraint": null,
                            "strides": [
                                1,
                                1
                            ],
                            "dilation_rate": [
                                1,
                                1
                            ],
                            "kernel_regularizer": null,
                            "filters": 256,
                            "bias_initializer": {
                                "class_name": "Zeros",
                                "config": {}
                            },
                            "use_bias": true,
                            "activity_regularizer": null,
                            "kernel_size": [
                                1,
                                1
                            ],
                            "size": 1
                        },
                        "inbound_nodes": [
                            [
                                [
                                    "activation_22",
                                    0,
                                    0,
                                    {}
                                ]
                            ]
                        ],
                        "name": "conv_24"
                    },
                    {
                        "class_name": "Add",
                        "config": {
                            "trainable": true,
                            "name": "add_7"
                        },
                        "inbound_nodes": [
                            [
                                [
                                    "conv_24",
                                    0,
                                    0,
                                    {}
                                ],
                                [
                                    "add_6",
                                    0,
                                    0,
                                    {}
                                ]
                            ]
                        ],
                        "name": "add_7"
                    },
                    {
                        "class_name": "BatchNorm",
                        "config": {
                            "beta_constraint": null,
                            "gamma_initializer": {
                                "class_name": "Ones",
                                "config": {}
                            },
                            "moving_mean_initializer": {
                                "class_name": "Zeros",
                                "config": {}
                            },
                            "name": "batch_norm_23",
                            "epsilon": 1e-05,
                            "trainable": true,
                            "moving_variance_initializer": {
                                "class_name": "Ones",
                                "config": {}
                            },
                            "beta_initializer": {
                                "class_name": "Zeros",
                                "config": {}
                            },
                            "scale": true,
                            "axis": 1,
                            "gamma_constraint": null,
                            "gamma_regularizer": null,
                            "beta_regularizer": null,
                            "momentum": 0.1,
                            "center": true
                        },
                        "inbound_nodes": [
                            [
                                [
                                    "add_7",
                                    0,
                                    0,
                                    {}
                                ]
                            ]
                        ],
                        "name": "batch_norm_23"
                    },
                    {
                        "class_name": "Activation",
                        "config": {
                            "activation": "relu",
                            "trainable": true,
                            "name": "activation_23"
                        },
                        "inbound_nodes": [
                            [
                                [
                                    "batch_norm_23",
                                    0,
                                    0,
                                    {}
                                ]
                            ]
                        ],
                        "name": "activation_23"
                    },
                    {
                        "class_name": "Conv",
                        "config": {
                            "padding": "valid",
                            "kernel_initializer": {
                                "class_name": "VarianceScaling",
                                "config": {
                                    "distribution": "uniform",
                                    "scale": 1.0,
                                    "seed": null,
                                    "mode": "fan_avg"
                                }
                            },
                            "name": "conv_25",
                            "bias_regularizer": null,
                            "bias_constraint": null,
                            "activation": "linear",
                            "trainable": true,
                            "data_format": "channels_first",
                            "output_dim": 128,
                            "kernel_constraint": null,
                            "strides": [
                                1,
                                1
                            ],
                            "dilation_rate": [
                                1,
                                1
                            ],
                            "kernel_regularizer": null,
                            "filters": 128,
                            "bias_initializer": {
                                "class_name": "Zeros",
                                "config": {}
                            },
                            "use_bias": true,
                            "activity_regularizer": null,
                            "kernel_size": [
                                1,
                                1
                            ],
                            "size": 1
                        },
                        "inbound_nodes": [
                            [
                                [
                                    "activation_23",
                                    0,
                                    0,
                                    {}
                                ]
                            ]
                        ],
                        "name": "conv_25"
                    },
                    {
                        "class_name": "BatchNorm",
                        "config": {
                            "beta_constraint": null,
                            "gamma_initializer": {
                                "class_name": "Ones",
                                "config": {}
                            },
                            "moving_mean_initializer": {
                                "class_name": "Zeros",
                                "config": {}
                            },
                            "name": "batch_norm_24",
                            "epsilon": 1e-05,
                            "trainable": true,
                            "moving_variance_initializer": {
                                "class_name": "Ones",
                                "config": {}
                            },
                            "beta_initializer": {
                                "class_name": "Zeros",
                                "config": {}
                            },
                            "scale": true,
                            "axis": 1,
                            "gamma_constraint": null,
                            "gamma_regularizer": null,
                            "beta_regularizer": null,
                            "momentum": 0.1,
                            "center": true
                        },
                        "inbound_nodes": [
                            [
                                [
                                    "conv_25",
                                    0,
                                    0,
                                    {}
                                ]
                            ]
                        ],
                        "name": "batch_norm_24"
                    },
                    {
                        "class_name": "Activation",
                        "config": {
                            "activation": "relu",
                            "trainable": true,
                            "name": "activation_24"
                        },
                        "inbound_nodes": [
                            [
                                [
                                    "batch_norm_24",
                                    0,
                                    0,
                                    {}
                                ]
                            ]
                        ],
                        "name": "activation_24"
                    },
                    {
                        "class_name": "Conv",
                        "config": {
                            "padding": "valid",
                            "kernel_initializer": {
                                "class_name": "VarianceScaling",
                                "config": {
                                    "distribution": "uniform",
                                    "scale": 1.0,
                                    "seed": null,
                                    "mode": "fan_avg"
                                }
                            },
                            "name": "conv_26",
                            "bias_regularizer": null,
                            "bias_constraint": null,
                            "activation": "linear",
                            "trainable": true,
                            "data_format": "channels_first",
                            "output_dim": 128,
                            "kernel_constraint": null,
                            "strides": [
                                1,
                                1
                            ],
                            "dilation_rate": [
                                1,
                                1
                            ],
                            "kernel_regularizer": null,
                            "filters": 128,
                            "bias_initializer": {
                                "class_name": "Zeros",
                                "config": {}
                            },
                            "use_bias": true,
                            "activity_regularizer": null,
                            "kernel_size": [
                                3,
                                3
                            ],
                            "size": 3
                        },
                        "inbound_nodes": [
                            [
                                [
                                    "activation_24",
                                    0,
                                    0,
                                    {}
                                ]
                            ]
                        ],
                        "name": "conv_26"
                    },
                    {
                        "class_name": "BatchNorm",
                        "config": {
                            "beta_constraint": null,
                            "gamma_initializer": {
                                "class_name": "Ones",
                                "config": {}
                            },
                            "moving_mean_initializer": {
                                "class_name": "Zeros",
                                "config": {}
                            },
                            "name": "batch_norm_25",
                            "epsilon": 1e-05,
                            "trainable": true,
                            "moving_variance_initializer": {
                                "class_name": "Ones",
                                "config": {}
                            },
                            "beta_initializer": {
                                "class_name": "Zeros",
                                "config": {}
                            },
                            "scale": true,
                            "axis": 1,
                            "gamma_constraint": null,
                            "gamma_regularizer": null,
                            "beta_regularizer": null,
                            "momentum": 0.1,
                            "center": true
                        },
                        "inbound_nodes": [
                            [
                                [
                                    "conv_26",
                                    0,
                                    0,
                                    {}
                                ]
                            ]
                        ],
                        "name": "batch_norm_25"
                    },
                    {
                        "class_name": "Activation",
                        "config": {
                            "activation": "relu",
                            "trainable": true,
                            "name": "activation_25"
                        },
                        "inbound_nodes": [
                            [
                                [
                                    "batch_norm_25",
                                    0,
                                    0,
                                    {}
                                ]
                            ]
                        ],
                        "name": "activation_25"
                    },
                    {
                        "class_name": "Conv",
                        "config": {
                            "padding": "valid",
                            "kernel_initializer": {
                                "class_name": "VarianceScaling",
                                "config": {
                                    "distribution": "uniform",
                                    "scale": 1.0,
                                    "seed": null,
                                    "mode": "fan_avg"
                                }
                            },
                            "name": "conv_27",
                            "bias_regularizer": null,
                            "bias_constraint": null,
                            "activation": "linear",
                            "trainable": true,
                            "data_format": "channels_first",
                            "output_dim": 256,
                            "kernel_constraint": null,
                            "strides": [
                                1,
                                1
                            ],
                            "dilation_rate": [
                                1,
                                1
                            ],
                            "kernel_regularizer": null,
                            "filters": 256,
                            "bias_initializer": {
                                "class_name": "Zeros",
                                "config": {}
                            },
                            "use_bias": true,
                            "activity_regularizer": null,
                            "kernel_size": [
                                1,
                                1
                            ],
                            "size": 1
                        },
                        "inbound_nodes": [
                            [
                                [
                                    "activation_25",
                                    0,
                                    0,
                                    {}
                                ]
                            ]
                        ],
                        "name": "conv_27"
                    },
                    {
                        "class_name": "Add",
                        "config": {
                            "trainable": true,
                            "name": "add_8"
                        },
                        "inbound_nodes": [
                            [
                                [
                                    "conv_27",
                                    0,
                                    0,
                                    {}
                                ],
                                [
                                    "add_7",
                                    0,
                                    0,
                                    {}
                                ]
                            ]
                        ],
                        "name": "add_8"
                    },
                    {
                        "class_name": "BatchNorm",
                        "config": {
                            "beta_constraint": null,
                            "gamma_initializer": {
                                "class_name": "Ones",
                                "config": {}
                            },
                            "moving_mean_initializer": {
                                "class_name": "Zeros",
                                "config": {}
                            },
                            "name": "batch_norm_26",
                            "epsilon": 1e-05,
                            "trainable": true,
                            "moving_variance_initializer": {
                                "class_name": "Ones",
                                "config": {}
                            },
                            "beta_initializer": {
                                "class_name": "Zeros",
                                "config": {}
                            },
                            "scale": true,
                            "axis": 1,
                            "gamma_constraint": null,
                            "gamma_regularizer": null,
                            "beta_regularizer": null,
                            "momentum": 0.1,
                            "center": true
                        },
                        "inbound_nodes": [
                            [
                                [
                                    "add_8",
                                    0,
                                    0,
                                    {}
                                ]
                            ]
                        ],
                        "name": "batch_norm_26"
                    },
                    {
                        "class_name": "Activation",
                        "config": {
                            "activation": "relu",
                            "trainable": true,
                            "name": "activation_26"
                        },
                        "inbound_nodes": [
                            [
                                [
                                    "batch_norm_26",
                                    0,
                                    0,
                                    {}
                                ]
                            ]
                        ],
                        "name": "activation_26"
                    },
                    {
                        "class_name": "Conv",
                        "config": {
                            "padding": "valid",
                            "kernel_initializer": {
                                "class_name": "VarianceScaling",
                                "config": {
                                    "distribution": "uniform",
                                    "scale": 1.0,
                                    "seed": null,
                                    "mode": "fan_avg"
                                }
                            },
                            "name": "conv_28",
                            "bias_regularizer": null,
                            "bias_constraint": null,
                            "activation": "linear",
                            "trainable": true,
                            "data_format": "channels_first",
                            "output_dim": 128,
                            "kernel_constraint": null,
                            "strides": [
                                1,
                                1
                            ],
                            "dilation_rate": [
                                1,
                                1
                            ],
                            "kernel_regularizer": null,
                            "filters": 128,
                            "bias_initializer": {
                                "class_name": "Zeros",
                                "config": {}
                            },
                            "use_bias": true,
                            "activity_regularizer": null,
                            "kernel_size": [
                                1,
                                1
                            ],
                            "size": 1
                        },
                        "inbound_nodes": [
                            [
                                [
                                    "activation_26",
                                    0,
                                    0,
                                    {}
                                ]
                            ]
                        ],
                        "name": "conv_28"
                    },
                    {
                        "class_name": "BatchNorm",
                        "config": {
                            "beta_constraint": null,
                            "gamma_initializer": {
                                "class_name": "Ones",
                                "config": {}
                            },
                            "moving_mean_initializer": {
                                "class_name": "Zeros",
                                "config": {}
                            },
                            "name": "batch_norm_27",
                            "epsilon": 1e-05,
                            "trainable": true,
                            "moving_variance_initializer": {
                                "class_name": "Ones",
                                "config": {}
                            },
                            "beta_initializer": {
                                "class_name": "Zeros",
                                "config": {}
                            },
                            "scale": true,
                            "axis": 1,
                            "gamma_constraint": null,
                            "gamma_regularizer": null,
                            "beta_regularizer": null,
                            "momentum": 0.1,
                            "center": true
                        },
                        "inbound_nodes": [
                            [
                                [
                                    "conv_28",
                                    0,
                                    0,
                                    {}
                                ]
                            ]
                        ],
                        "name": "batch_norm_27"
                    },
                    {
                        "class_name": "Activation",
                        "config": {
                            "activation": "relu",
                            "trainable": true,
                            "name": "activation_27"
                        },
                        "inbound_nodes": [
                            [
                                [
                                    "batch_norm_27",
                                    0,
                                    0,
                                    {}
                                ]
                            ]
                        ],
                        "name": "activation_27"
                    },
                    {
                        "class_name": "Conv",
                        "config": {
                            "padding": "valid",
                            "kernel_initializer": {
                                "class_name": "VarianceScaling",
                                "config": {
                                    "distribution": "uniform",
                                    "scale": 1.0,
                                    "seed": null,
                                    "mode": "fan_avg"
                                }
                            },
                            "name": "conv_29",
                            "bias_regularizer": null,
                            "bias_constraint": null,
                            "activation": "linear",
                            "trainable": true,
                            "data_format": "channels_first",
                            "output_dim": 128,
                            "kernel_constraint": null,
                            "strides": [
                                1,
                                1
                            ],
                            "dilation_rate": [
                                1,
                                1
                            ],
                            "kernel_regularizer": null,
                            "filters": 128,
                            "bias_initializer": {
                                "class_name": "Zeros",
                                "config": {}
                            },
                            "use_bias": true,
                            "activity_regularizer": null,
                            "kernel_size": [
                                3,
                                3
                            ],
                            "size": 3
                        },
                        "inbound_nodes": [
                            [
                                [
                                    "activation_27",
                                    0,
                                    0,
                                    {}
                                ]
                            ]
                        ],
                        "name": "conv_29"
                    },
                    {
                        "class_name": "BatchNorm",
                        "config": {
                            "beta_constraint": null,
                            "gamma_initializer": {
                                "class_name": "Ones",
                                "config": {}
                            },
                            "moving_mean_initializer": {
                                "class_name": "Zeros",
                                "config": {}
                            },
                            "name": "batch_norm_28",
                            "epsilon": 1e-05,
                            "trainable": true,
                            "moving_variance_initializer": {
                                "class_name": "Ones",
                                "config": {}
                            },
                            "beta_initializer": {
                                "class_name": "Zeros",
                                "config": {}
                            },
                            "scale": true,
                            "axis": 1,
                            "gamma_constraint": null,
                            "gamma_regularizer": null,
                            "beta_regularizer": null,
                            "momentum": 0.1,
                            "center": true
                        },
                        "inbound_nodes": [
                            [
                                [
                                    "conv_29",
                                    0,
                                    0,
                                    {}
                                ]
                            ]
                        ],
                        "name": "batch_norm_28"
                    },
                    {
                        "class_name": "Activation",
                        "config": {
                            "activation": "relu",
                            "trainable": true,
                            "name": "activation_28"
                        },
                        "inbound_nodes": [
                            [
                                [
                                    "batch_norm_28",
                                    0,
                                    0,
                                    {}
                                ]
                            ]
                        ],
                        "name": "activation_28"
                    },
                    {
                        "class_name": "Conv",
                        "config": {
                            "padding": "valid",
                            "kernel_initializer": {
                                "class_name": "VarianceScaling",
                                "config": {
                                    "distribution": "uniform",
                                    "scale": 1.0,
                                    "seed": null,
                                    "mode": "fan_avg"
                                }
                            },
…
                    ],
                    "dtype": "float32"
                },
                {
                    "name": "conv_256/kernel",
                    "shape": [
                        3,
                        3,
                        128,
                        128
                    ],
                    "dtype": "float32"
                },
                {
                    "name": "conv_256/bias",
                    "shape": [
                        128
                    ],
                    "dtype": "float32"
                },
                {
                    "name": "conv_257/kernel",
                    "shape": [
                        1,
                        1,
                        128,
                        256
                    ],
                    "dtype": "float32"
                },
                {
                    "name": "conv_257/bias",
                    "shape": [
                        256
                    ],
                    "dtype": "float32"
                },
                {
                    "name": "conv_258/kernel",
                    "shape": [
                        1,
                        1,
                        256,
                        128
                    ],
                    "dtype": "float32"
                },
                {
                    "name": "conv_258/bias",
                    "shape": [
                        128
                    ],
                    "dtype": "float32"
                },
                {
                    "name": "conv_259/kernel",
                    "shape": [
                        3,
                        3,
                        128,
                        128
                    ],
                    "dtype": "float32"
                },
                {
                    "name": "conv_259/bias",
                    "shape": [
                        128
                    ],
                    "dtype": "float32"
                },
                {
                    "name": "conv_26/kernel",
                    "shape": [
                        3,
                        3,
                        128,
                        128
                    ],
                    "dtype": "float32"
                },
                {
                    "name": "conv_26/bias",
                    "shape": [
                        128
                    ],
                    "dtype": "float32"
                },
                {
                    "name": "conv_260/kernel",
                    "shape": [
                        1,
                        1,
                        128,
                        256
                    ],
                    "dtype": "float32"
                },
                {
                    "name": "conv_260/bias",
                    "shape": [
                        256
                    ],
                    "dtype": "float32"
                },
                {
                    "name": "conv_261/kernel",
                    "shape": [
                        1,
                        1,
                        256,
                        128
                    ],
                    "dtype": "float32"
                },
                {
                    "name": "conv_261/bias",
                    "shape": [
                        128
                    ],
                    "dtype": "float32"
                },
                {
                    "name": "conv_262/kernel",
                    "shape": [
                        3,
                        3,
                        128,
                        128
                    ],
                    "dtype": "float32"
                },
                {
                    "name": "conv_262/bias",
                    "shape": [
                        128
                    ],
                    "dtype": "float32"
                },
                {
                    "name": "conv_263/kernel",
                    "shape": [
                        1,
                        1,
                        128,
                        256
                    ],
                    "dtype": "float32"
                },
                {
                    "name": "conv_263/bias",
                    "shape": [
                        256
                    ],
                    "dtype": "float32"
                },
                {
                    "name": "conv_264/kernel",
                    "shape": [
                        1,
                        1,
                        256,
                        128
                    ],
                    "dtype": "float32"
                },
                {
                    "name": "conv_264/bias",
                    "shape": [
                        128
                    ],
                    "dtype": "float32"
                },
                {
                    "name": "conv_265/kernel",
                    "shape": [
                        3,
                        3,
                        128,
                        128
                    ],
                    "dtype": "float32"
                },
                {
                    "name": "conv_265/bias",
                    "shape": [
                        128
                    ],
                    "dtype": "float32"
                },
                {
                    "name": "conv_266/kernel",
                    "shape": [
                        1,
                        1,
                        128,
                        256
                    ],
                    "dtype": "float32"
                },
                {
                    "name": "conv_266/bias",
                    "shape": [
                        256
                    ],
                    "dtype": "float32"
                },
                {
                    "name": "conv_267/kernel",
                    "shape": [
                        1,
                        1,
                        256,
                        128
                    ],
                    "dtype": "float32"
                },
                {
                    "name": "conv_267/bias",
                    "shape": [
                        128
                    ],
                    "dtype": "float32"
                },
                {
                    "name": "conv_268/kernel",
                    "shape": [
                        3,
                        3,
                        128,
                        128
                    ],
                    "dtype": "float32"
                },
                {
                    "name": "conv_268/bias",
                    "shape": [
                        128
                    ],
                    "dtype": "float32"
                },
                {
                    "name": "conv_269/kernel",
                    "shape": [
                        1,
                        1,
                        128,
                        256
                    ],
                    "dtype": "float32"
                },
                {
                    "name": "conv_269/bias",
                    "shape": [
                        256
                    ],
                    "dtype": "float32"
                },
                {
                    "name": "conv_27/kernel",
                    "shape": [
                        1,
                        1,
                        128,
                        256
                    ],
                    "dtype": "float32"
                },
                {
                    "name": "conv_27/bias",
                    "shape": [
                        256
                    ],
                    "dtype": "float32"
                },
                {
                    "name": "conv_270/kernel",
                    "shape": [
                        1,
                        1,
                        256,
                        128
                    ],
                    "dtype": "float32"
                },
                {
                    "name": "conv_270/bias",
                    "shape": [
                        128
                    ],
                    "dtype": "float32"
                },
                {
                    "name": "conv_271/kernel",
                    "shape": [
                        3,
                        3,
                        128,
                        128
                    ],
                    "dtype": "float32"
                },
                {
                    "name": "conv_271/bias",
                    "shape": [
                        128
                    ],
                    "dtype": "float32"
                },
                {
                    "name": "conv_272/kernel",
                    "shape": [
                        1,
                        1,
                        128,
                        256
                    ],
                    "dtype": "float32"
                },
                {
                    "name": "conv_272/bias",
                    "shape": [
                        256
                    ],
                    "dtype": "float32"
                },
                {
                    "name": "conv_273/kernel",
                    "shape": [
                        1,
                        1,
                        256,
                        256
                    ],
                    "dtype": "float32"
                },
                {
                    "name": "conv_273/bias",
                    "shape": [
                        256
                    ],
                    "dtype": "float32"
                },
                {
                    "name": "conv_274/kernel",
                    "shape": [
                        1,
                        1,
                        256,
                        256
                    ],
                    "dtype": "float32"
                },
                {
                    "name": "conv_274/bias",
                    "shape": [
                        256
                    ],
                    "dtype": "float32"
                },
                {
                    "name": "conv_275/kernel",
                    "shape": [
                        1,
                        1,
                        256,
                        256
                    ],
                    "dtype": "float32"
                },
                {
                    "name": "conv_275/bias",
                    "shape": [
                        256
                    ],
                    "dtype": "float32"
                },
                {
                    "name": "conv_276/kernel",
                    "shape": [
                        1,
                        1,
                        256,
                        200
                    ],
                    "dtype": "float32"
                },
                {
                    "name": "conv_276/bias",
                    "shape": [
                        200
                    ],
                    "dtype": "float32"
                },
                {
                    "name": "conv_28/kernel",
                    "shape": [
                        1,
                        1,
                        256,
                        128
                    ],
                    "dtype": "float32"
                },
                {
                    "name": "conv_28/bias",
                    "shape": [
                        128
                    ],
                    "dtype": "float32"
                },
                {
                    "name": "conv_29/kernel",
                    "shape": [
                        3,
                        3,
                        128,
                        128
                    ],
                    "dtype": "float32"
                },
                {
                    "name": "conv_29/bias",
                    "shape": [
                        128
                    ],
                    "dtype": "float32"
                },
                {
                    "name": "conv_3/kernel",
                    "shape": [
                        3,
                        3,
                        64,
                        64
                    ],
                    "dtype": "float32"
                },
                {
                    "name": "conv_3/bias",
                    "shape": [
                        64
                    ],
                    "dtype": "float32"
                },
                {
                    "name": "conv_30/kernel",
                    "shape": [
                        1,
                        1,
                        128,
                        256
                    ],
                    "dtype": "float32"
                },
                {
                    "name": "conv_30/bias",
                    "shape": [
                        256
                    ],
                    "dtype": "float32"
                },
                {
                    "name": "conv_31/kernel",
                    "shape": [
                        1,
                        1,
                        256,
                        128
                    ],
                    "dtype": "float32"
                },
                {
                    "name": "conv_31/bias",
                    "shape": [
                        128
                    ],
                    "dtype": "float32"
                },
                {
                    "name": "conv_32/kernel",
                    "shape": [
                        3,
                        3,
                        128,
                        128
                    ],
                    "dtype": "float32"
                },
                {
                    "name": "conv_32/bias",
                    "shape": [
                        128
                    ],
                    "dtype": "float32"
                },
                {
                    "name": "conv_33/kernel",
                    "shape": [
                        1,
                        1,
                        128,
                        256
                    ],
                    "dtype": "float32"
                },
                {
                    "name": "conv_33/bias",
                    "shape": [
                        256
                    ],
                    "dtype": "float32"
                },
                {
                    "name": "conv_34/kernel",
                    "shape": [
                        1,
                        1,
                        256,
                        128
                    ],
                    "dtype": "float32"
                },
                {
                    "name": "conv_34/bias",
                    "shape": [
                        128
                    ],
                    "dtype": "float32"
                },
                {
                    "name": "conv_35/kernel",
                    "shape": [
                        3,
                        3,
                        128,
                        128
                    ],
                    "dtype": "float32"
                },
                {
                    "name": "conv_35/bias",
                    "shape": [
                        128
                    ],
                    "dtype": "float32"
                },
                {
                    "name": "conv_36/kernel",
                    "shape": [
                        1,
                        1,
                        128,
                        256
                    ],
                    "dtype": "float32"
                },
                {
                    "name": "conv_36/bias",
                    "shape": [
                        256
                    ],
                    "dtype": "float32"
                },
                {
                    "name": "conv_37/kernel",
                    "shape": [
                        1,
                        1,
                        256,
                        128
                    ],
                    "dtype": "float32"
                },
                {
                    "name": "conv_37/bias",
                    "shape": [
                        128
                    ],
                    "dtype": "float32"
                },
                {
                    "name": "conv_38/kernel",
                    "shape": [
                        3,
                        3,
                        128,
                        128
                    ],
                    "dtype": "float32"
                },
                {
                    "name": "conv_38/bias",
                    "shape": [
                        128
                    ],
                    "dtype": "float32"
                },
                {
                    "name": "conv_39/kernel",
                    "shape": [
                        1,
                        1,
                        128,
                        256
                    ],
                    "dtype": "float32"
                },
                {
                    "name": "conv_39/bias",
                    "shape": [
                        256
                    ],
                    "dtype": "float32"
                },
                {
                    "name": "conv_4/kernel",
                    "shape": [
                        1,
                        1,
                        64,
                        128
                    ],
                    "dtype": "float32"
                },
                {
                    "name": "conv_4/bias",
                    "shape": [
                        128
                    ],
                    "dtype": "float32"
                },
                {
                    "name": "conv_40/kernel",
                    "shape": [
                        1,
                        1,
                        256,
                        128
                    ],
                    "dtype": "float32"
                },
                {
                    "name": "conv_40/bias",
                    "shape": [
                        128
                    ],
                    "dtype": "float32"
                },
                {
                    "name": "conv_41/kernel",
                    "shape": [
                        3,
                        3,
                        128,
                        128
                    ],
                    "dtype": "float32"
                },
                {
                    "name": "conv_41/bias",
                    "shape": [
                        128
                    ],
                    "dtype": "float32"
                },
                {
                    "name": "conv_42/kernel",
                    "shape": [
                        1,
                        1,
                        128,
                        256
                    ],
                    "dtype": "float32"
                },
                {
                    "name": "conv_42/bias",
                    "shape": [
                        256
                    ],
                    "dtype": "float32"
                },
                {
                    "name": "conv_43/kernel",
                    "shape": [
                        1,
                        1,
                        256,
                        128
                    ],
                    "dtype": "float32"
                },
                {
                    "name": "conv_43/bias",
                    "shape": [
                        128
                    ],
                    "dtype": "float32"
                },
                {
                    "name": "conv_44/kernel",
                    "shape": [
                        3,
                        3,
                        128,
                        128
                    ],
                    "dtype": "float32"
                },
                {
                    "name": "conv_44/bias",
                    "shape": [
                        128
                    ],
                    "dtype": "float32"
                },
                {
                    "name": "conv_45/kernel",
                    "shape": [
                        1,
                        1,
                        128,
                        256
                    ],
                    "dtype": "float32"
                },
                {
                    "name": "conv_45/bias",
                    "shape": [
                        256
                    ],
                    "dtype": "float32"
                },
                {
                    "name": "conv_46/kernel",
                    "shape": [
                        1,
                        1,
                        256,
                        128
                    ],
                    "dtype": "float32"
                },
                {
                    "name": "conv_46/bias",
                    "shape": [
                        128
                    ],
                    "dtype": "float32"
                },
                {
                    "name": "conv_47/kernel",
                    "shape": [
                        3,
                        3,
                        128,
                        128
                    ],
                    "dtype": "float32"
                },
                {
                    "name": "conv_47/bias",
                    "shape": [
                        128
                    ],
                    "dtype": "float32"
                },
                {
                    "name": "conv_48/kernel",
                    "shape": [
                        1,
                        1,
                        128,
                        256
                    ],
                    "dtype": "float32"
                },
                {
                    "name": "conv_48/bias",
                    "shape": [
                        256
                    ],
                    "dtype": "float32"
                },
                {
                    "name": "conv_49/kernel",
                    "shape": [
                        1,
                        1,
                        256,
                        128
                    ],
                    "dtype": "float32"
                },
                {
                    "name": "conv_49/bias",
                    "shape": [
                        128
                    ],
                    "dtype": "float32"
                },
                {
                    "name": "conv_5/kernel",
                    "shape": [
                        1,
                        1,
                        64,
                        128
                    ],
                    "dtype": "float32"
                },
                {
                    "name": "conv_5/bias",
                    "shape": [
                        128
                    ],
                    "dtype": "float32"
                },
                {
                    "name": "conv_50/kernel",
                    "shape": [
                        3,
                        3,
                        128,
                        128
                    ],
                    "dtype": "float32"
                },
                {
                    "name": "conv_50/bias",
                    "shape": [
                        128
                    ],
                    "dtype": "float32"
                },
                {
                    "name": "conv_51/kernel",
                    "shape": [
                        1,
                        1,
                        128,
                        256
                    ],
                    "dtype": "float32"
                },
                {
                    "name": "conv_51/bias",
                    "shape": [
                        256
                    ],
                    "dtype": "float32"
                },
                {
                    "name": "conv_52/kernel",
                    "shape": [
                        1,
                        1,
                        256,
                        128
                    ],
                    "dtype": "float32"
                },
                {
                    "name": "conv_52/bias",
                    "shape": [
                        128
                    ],
                    "dtype": "float32"
                },
                {
                    "name": "conv_53/kernel",
                    "shape": [
                        3,
                        3,
                        128,
                        128
                    ],
                    "dtype": "float32"
                },
                {
                    "name": "conv_53/bias",
                    "shape": [
                        128
                    ],
                    "dtype": "float32"
                },
                {
                    "name": "conv_54/kernel",
                    "shape": [
                        1,
                        1,
                        128,
                        256
                    ],
                    "dtype": "float32"
                },
                {
                    "name": "conv_54/bias",
                    "shape": [
                        256
                    ],
                    "dtype": "float32"
                },
                {
                    "name": "conv_55/kernel",
                    "shape": [
                        1,
                        1,
                        256,
                        128
                    ],
                    "dtype": "float32"
                },
                {
                    "name": "conv_55/bias",
                    "shape": [
                        128
                    ],
                    "dtype": "float32"
                },
                {
                    "name": "conv_56/kernel",
                    "shape": [
                        3,
                        3,
                        128,
                        128
                    ],
                    "dtype": "float32"
                },
                {
                    "name": "conv_56/bias",
                    "shape": [
                        128
                    ],
                    "dtype": "float32"
                },
                {
                    "name": "conv_57/kernel",
                    "shape": [
                        1,
                        1,
                        128,
                        256
                    ],
                    "dtype": "float32"
                },
                {
                    "name": "conv_57/bias",
                    "shape": [
                        256
                    ],
                    "dtype": "float32"
                },
                {
                    "name": "conv_58/kernel",
                    "shape": [
                        1,
                        1,
                        256,
                        128
                    ],
                    "dtype": "float32"
                },
                {
                    "name": "conv_58/bias",
                    "shape": [
                        128
                    ],
                    "dtype": "float32"
                },
                {
                    "name": "conv_59/kernel",
                    "shape": [
                        3,
                        3,
                        128,
                        128
                    ],
                    "dtype": "float32"
                },
                {
                    "name": "conv_59/bias",
                    "shape": [
                        128
                    ],
                    "dtype": "float32"
                },
                {
                    "name": "conv_6/kernel",
                    "shape": [
                        1,
                        1,
                        128,
                        64
                    ],
                    "dtype": "float32"
                },
                {
                    "name": "conv_6/bias",
                    "shape": [
                        64
                    ],
                    "dtype": "float32"
                },
                {
                    "name": "conv_60/kernel",
                    "shape": [
                        1,
                        1,
                        128,
                        256
                    ],
                    "dtype": "float32"
                },
                {
                    "name": "conv_60/bias",
                    "shape": [
                        256
                    ],
                    "dtype": "float32"
                },
                {
                    "name": "conv_61/kernel",
                    "shape": [
                        1,
                        1,
                        256,
                        128
                    ],
                    "dtype": "float32"
                },
                {
                    "name": "conv_61/bias",
                    "shape": [
                        128
                    ],
                    "dtype": "float32"
                },
                {
                    "name": "conv_62/kernel",
                    "shape": [
                        3,
                        3,
                        128,
                        128
                    ],
                    "dtype": "float32"
                },
                {
                    "name": "conv_62/bias",
                    "shape": [
                        128
                    ],
                    "dtype": "float32"
                },
                {
                    "name": "conv_63/kernel",
                    "shape": [
                        1,
                        1,
                        128,
                        256
                    ],
                    "dtype": "float32"
                },
                {
                    "name": "conv_63/bias",
                    "shape": [
                        256
                    ],
                    "dtype": "float32"
                },
                {
                    "name": "conv_64/kernel",
                    "shape": [
                        1,
                        1,
                        256,
                        128
                    ],
                    "dtype": "float32"
                },
                {
                    "name": "conv_64/bias",
                    "shape": [
                        128
                    ],
                    "dtype": "float32"
                },
                {
                    "name": "conv_65/kernel",
                    "shape": [
                        3,
                        3,
                        128,
                        128
                    ],
                    "dtype": "float32"
                },
                {
                    "name": "conv_65/bias",
                    "shape": [
                        128
                    ],
                    "dtype": "float32"
                },
                {
                    "name": "conv_66/kernel",
                    "shape": [
                        1,
                        1,
                        128,
                        256
                    ],
                    "dtype": "float32"
                },
                {
                    "name": "conv_66/bias",
                    "shape": [
                        256
                    ],
                    "dtype": "float32"
                },
                {
                    "name": "conv_67/kernel",
                    "shape": [
                        1,
                        1,
                        256,
                        128
                    ],
                    "dtype": "float32"
                },
                {
                    "name": "conv_67/bias",
                    "shape": [
                        128
                    ],
                    "dtype": "float32"
                },
                {
                    "name": "conv_68/kernel",
                    "shape": [
                        3,
                        3,
                        128,
                        128
                    ],
                    "dtype": "float32"
                },
                {
                    "name": "conv_68/bias",
                    "shape": [
                        128
                    ],
                    "dtype": "float32"
                },
                {
                    "name": "conv_69/kernel",
                    "shape": [
                        1,
                        1,
                        128,
                        256
                    ],
                    "dtype": "float32"
                },
                {
                    "name": "conv_69/bias",
                    "shape": [
                        256
                    ],
                    "dtype": "float32"
                },
                {
                    "name": "conv_7/kernel",
                    "shape": [
                        3,
                        3,
                        64,
                        64
                    ],
                    "dtype": "float32"
                },
                {
                    "name": "conv_7/bias",
                    "shape": [
                        64
                    ],
                    "dtype": "float32"
                },
                {
                    "name": "conv_70/kernel",
                    "shape": [
                        1,
                        1,
                        256,
                        128
                    ],
                    "dtype": "float32"
                },
                {
                    "name": "conv_70/bias",
                    "shape": [
                        128
                    ],
                    "dtype": "float32"
                },
                {
                    "name": "conv_71/kernel",
                    "shape": [
                        3,
                        3,
                        128,
                        128
                    ],
                    "dtype": "float32"
                },
                {
                    "name": "conv_71/bias",
                    "shape": [
                        128
                    ],
                    "dtype": "float32"
                },
                {
                    "name": "conv_72/kernel",
                    "shape": [
                        1,
                        1,
                        128,
                        256
                    ],
                    "dtype": "float32"
                },
                {
                    "name": "conv_72/bias",
                    "shape": [
                        256
                    ],
                    "dtype": "float32"
                },
                {
                    "name": "conv_73/kernel",
                    "shape": [
                        1,
                        1,
                        256,
                        128
                    ],
                    "dtype": "float32"
                },
                {
                    "name": "conv_73/bias",
                    "shape": [
                        128
                    ],
                    "dtype": "float32"
                },
                {
                    "name": "conv_74/kernel",
                    "shape": [
                        3,
                        3,
                        128,
                        128
                    ],
                    "dtype": "float32"
                },
                {
                    "name": "conv_74/bias",
                    "shape": [
                        128
                    ],
                    "dtype": "float32"
                },
                {
                    "name": "conv_75/kernel",
                    "shape": [
                        1,
                        1,
                        128,
                        256
                    ],
                    "dtype": "float32"
                },
                {
                    "name": "conv_75/bias",
                    "shape": [
                        256
                    ],
                    "dtype": "float32"
                },
                {
                    "name": "conv_76/kernel",
                    "shape": [
                        1,
                        1,
                        256,
                        128
                    ],
                    "dtype": "float32"
                },
                {
                    "name": "conv_76/bias",
                    "shape": [
                        128
                    ],
                    "dtype": "float32"
                },
                {
                    "name": "conv_77/kernel",
                    "shape": [
                        3,
                        3,
                        128,
                        128
                    ],
                    "dtype": "float32"
                },
                {
                    "name": "conv_77/bias",
                    "shape": [
                        128
                    ],
                    "dtype": "float32"
                },
                {
                    "name": "conv_78/kernel",
                    "shape": [
                        1,
                        1,
                        128,
                        256
                    ],
                    "dtype": "float32"
                },
                {
                    "name": "conv_78/bias",
                    "shape": [
                        256
                    ],
                    "dtype": "float32"
                },
                {
                    "name": "conv_79/kernel",
                    "shape": [
                        1,
                        1,
                        256,
                        128
                    ],
                    "dtype": "float32"
                },
                {
                    "name": "conv_79/bias",
                    "shape": [
                        128
                    ],
                    "dtype": "float32"
                },
                {
                    "name": "conv_8/kernel",
                    "shape": [
                        1,
                        1,
                        64,
                        128
                    ],
                    "dtype": "float32"
                },
                {
                    "name": "conv_8/bias",
                    "shape": [
                        128
                    ],
                    "dtype": "float32"
                },
                {
                    "name": "conv_80/kernel",
                    "shape": [
                        3,
                        3,
                        128,
                        128
                    ],
                    "dtype": "float32"
                },
                {
                    "name": "conv_80/bias",
                    "shape": [
                        128
                    ],
                    "dtype": "float32"
                },
                {
                    "name": "conv_81/kernel",
                    "shape": [
                        1,
                        1,
                        128,
                        256
                    ],
                    "dtype": "float32"
                },
                {
                    "name": "conv_81/bias",
                    "shape": [
                        256
                    ],
                    "dtype": "float32"
                },
                {
                    "name": "conv_82/kernel",
                    "shape": [
                        1,
                        1,
                        256,
                        128
                    ],
                    "dtype": "float32"
                },
                {
                    "name": "conv_82/bias",
                    "shape": [
                        128
                    ],
                    "dtype": "float32"
                },
                {
                    "name": "conv_83/kernel",
                    "shape": [
                        3,
                        3,
                        128,
                        128
                    ],
                    "dtype": "float32"
                },
                {
                    "name": "conv_83/bias",
                    "shape": [
                        128
                    ],
                    "dtype": "float32"
                },
                {
                    "name": "conv_84/kernel",
                    "shape": [
                        1,
                        1,
                        128,
                        256
                    ],
                    "dtype": "float32"
                },
                {
                    "name": "conv_84/bias",
                    "shape": [
                        256
                    ],
                    "dtype": "float32"
                },
                {
                    "name": "conv_85/kernel",
                    "shape": [
                        1,
                        1,
                        256,
                        128
                    ],
                    "dtype": "float32"
                },
                {
                    "name": "conv_85/bias",
                    "shape": [
                        128
                    ],
                    "dtype": "float32"
                },
                {
                    "name": "conv_86/kernel",
                    "shape": [
                        3,
                        3,
                        128,
                        128
                    ],
                    "dtype": "float32"
                },
                {
                    "name": "conv_86/bias",
                    "shape": [
                        128
                    ],
                    "dtype": "float32"
                },
                {
                    "name": "conv_87/kernel",
                    "shape": [
                        1,
                        1,
                        128,
                        256
                    ],
                    "dtype": "float32"
                },
                {
                    "name": "conv_87/bias",
                    "shape": [
                        256
                    ],
                    "dtype": "float32"
                },
                {
                    "name": "conv_88/kernel",
                    "shape": [
                        1,
                        1,
                        256,
                        128
                    ],
                    "dtype": "float32"
                },
                {
                    "name": "conv_88/bias",
                    "shape": [
                        128
                    ],
                    "dtype": "float32"
                },
                {
                    "name": "conv_89/kernel",
                    "shape": [
                        3,
                        3,
                        128,
                        128
                    ],
                    "dtype": "float32"
                },
                {
                    "name": "conv_89/bias",
                    "shape": [
                        128
                    ],
                    "dtype": "float32"
                },
                {
                    "name": "conv_9/kernel",
                    "shape": [
                        1,
                        1,
                        128,
                        128
                    ],
                    "dtype": "float32"
                },
                {
                    "name": "conv_9/bias",
                    "shape": [
                        128
                    ],
                    "dtype": "float32"
                },
                {
                    "name": "conv_90/kernel",
                    "shape": [
                        1,
                        1,
                        128,
                        256
                    ],
                    "dtype": "float32"
                },
                {
                    "name": "conv_90/bias",
                    "shape": [
                        256
                    ],
                    "dtype": "float32"
                },
                {
                    "name": "conv_91/kernel",
                    "shape": [
                        1,
                        1,
                        256,
                        128
                    ],
                    "dtype": "float32"
                },
                {
                    "name": "conv_91/bias",
                    "shape": [
                        128
                    ],
                    "dtype": "float32"
                },
                {
                    "name": "conv_92/kernel",
                    "shape": [
                        3,
                        3,
                        128,
                        128
                    ],
                    "dtype": "float32"
                },
                {
                    "name": "conv_92/bias",
                    "shape": [
                        128
                    ],
                    "dtype": "float32"
                },
                {
                    "name": "conv_93/kernel",
                    "shape": [
                        1,
                        1,
                        128,
                        256
                    ],
                    "dtype": "float32"
                },
                {
                    "name": "conv_93/bias",
                    "shape": [
                        256
                    ],
                    "dtype": "float32"
                },
                {
                    "name": "conv_94/kernel",
                    "shape": [
                        1,
                        1,
                        256,
                        128
                    ],
                    "dtype": "float32"
                },
                {
                    "name": "conv_94/bias",
                    "shape": [
                        128
                    ],
                    "dtype": "float32"
                },
                {
                    "name": "conv_95/kernel",
                    "shape": [
                        3,
                        3,
                        128,
                        128
                    ],
                    "dtype": "float32"
                },
                {
                    "name": "conv_95/bias",
                    "shape": [
                        128
                    ],
                    "dtype": "float32"
                },
                {
                    "name": "conv_96/kernel",
                    "shape": [
                        1,
                        1,
                        128,
                        256
                    ],
                    "dtype": "float32"
                },
                {
                    "name": "conv_96/bias",
                    "shape": [
                        256
                    ],
                    "dtype": "float32"
                },
                {
                    "name": "conv_97/kernel",
                    "shape": [
                        1,
                        1,
                        256,
                        128
                    ],
                    "dtype": "float32"
                },
                {
                    "name": "conv_97/bias",
                    "shape": [
                        128
                    ],
                    "dtype": "float32"
                },
                {
                    "name": "conv_98/kernel",
                    "shape": [
                        3,
                        3,
                        128,
                        128
                    ],
                    "dtype": "float32"
                },
                {
                    "name": "conv_98/bias",
                    "shape": [
                        128
                    ],
                    "dtype": "float32"
                },
                {
                    "name": "conv_99/kernel",
                    "shape": [
                        1,
                        1,
                        128,
                        256
                    ],
                    "dtype": "float32"
                },
                {
                    "name": "conv_99/bias",
                    "shape": [
                        256
                    ],
                    "dtype": "float32"
                }
            ]
        }
    ]
}